cartpole_policy_net_v2.pth (torch, 177842 bytes, 12 tensors)

fc1.weight f4 [256, 4]
0.041605253 -0.01582221 -0.11091901 0.29917258 -0.14961773 0.33451664 1.0765463 0.42705023
-0.0033705865 0.24599038 0.21091667 0.13880157 0.046855297 -0.043957505 0.6580002 0.24503694
0.21617234 -0.37992504 0.41297686 -0.23707406 0.056886125 0.0023614143 0.938185 0.060520712
0.07472764 0.11279278 1.1086591 0.2902911 0.14027211 -0.10843202 -0.13832791 -0.31198585
-0.17405558 0.25754562 1.3663552 0.15552166 0.06940109 -0.04402656 0.90272886 -0.37215015
0.06557926 0.062233202 1.2573986 0.12254979 0.05561317 -0.02249486 -0.30178076 -0.025509087
0.024184696 0.052097224 -0.13740018 -0.17061438 0.035179615 0.13408028 -0.9189173 0.40847865
0.29279914 0.13989015 0.07186963 0.11346773 0.06987745 0.11763768 0.23464565 -0.1258133
-0.0044909962 0.34621045 1.3342564 0.39537048 0.07671131 -0.09492132 -0.5191341 0.37577623
0.19024514 -0.5379915 0.35918254 -0.21922292 -0.1264339 -0.06243796 -0.20888571 0.018638771
0.2084189 -0.1032013 0.45528412 0.07056633 0.0073787477 0.2410713 -0.2913217 0.080453195
0.095747784 -0.30253884 0.846949 -0.14699736 -0.007885195 0.041402698 -0.60710746 0.19156888
0.114190444 -0.088049345 1.3014055 0.04555279 -0.016886378 -0.093810454 0.29888374 0.087943636
-0.10844735 0.5319266 -0.5761326 0.35208136 -0.13047303 0.40565613 0.3450205 0.26806256
0.23690814 0.38366634 -0.3337776 0.25048235 0.14873528 -0.2755089 0.026946105 -0.2088773
-0.07106088 0.0121169705 0.6209463 -0.20186023 -0.105270304 0.08897199 0.9903081 0.2155538
0.2456787 -0.3427644 -0.069990106 0.040173836 0.14921315 0.124484405 0.02200534 -0.058338158
0.31346327 0.26213402 1.4712231 0.41137555 0.05913554 -0.11953782 0.48303017 -0.1769368
0.30119926 -0.17591412 -0.18452907 0.029966863 -0.0021662654 -0.002608044 0.3043284 -0.052916426
0.27006635 0.27286583 0.68139786 0.26368928 0.12960394 -0.04103782 1.1614807 0.35762984
0.32198912 0.18796626 -0.9068394 -0.0041183145 0.059661187 0.026275156 0.64149904 -0.15855497
0.28570858 -0.47317776 0.38836378 -0.25187257 -0.18972595 -0.2107224 -0.34279585 -0.20344394
0.044946704 -0.32166564 0.0699587 -0.053924423 -0.31118006 0.48089007 -0.18728149 0.297211
-0.051789284 -0.36732104 0.4128427 -0.27483088 0.39826033 -0.46265057 -0.06641902 0.016402205
0.23979524 -0.2939624 0.6846568 -0.16499868 -0.27905452 0.41580012 1.0964125 0.36494368
0.07698434 -0.26802337 -0.36462006 -0.09862026 -0.09537689 0.46157253 0.013138848 0.23558512
0.4176189 -0.24844165 1.0165809 0.12547961 -0.16560262 -0.33624312 0.5395189 -0.16640098
0.27366382 -0.027966328 -1.2015426 -0.15770486 0.13817698 -0.22750689 -0.4399806 0.21348202
-0.38058907 0.24173522 1.3487532 0.40096542 -0.065806106 0.3773279 -0.3708531 0.19896922
0.064606234 -0.050141353 0.069150575 -0.13457826 -0.13119818 0.38636094 -0.48191863 0.10184377
0.19690906 0.09802975 0.3534392 0.028050466 -0.10783038 0.5197339 0.36730152 0.100993685
-0.005176385 0.28747612 -0.078614734 0.2731854 -0.21399033 0.09948067 0.2835302 0.09547057
00000000: 456a 2a3d 949d 81bc 8229 e3bd 262d 993e
00000010: 6435 19be c445 ab3e 45cc 893f 54a6 da3e
00000020: 0fe5 5cbb e7e4 7b3e 8afa 573e 0022 0e3e
00000030: 57eb 3f3d c90c 34bd b372 283f f7ea 7a3e
00000040: 485c 5d3e 8985 c2be b471 d33e 8bc3 72be
00000050: 6d01 693d f5c1 1a3b e42c 703f 91e4 773d
00000060: ce0a 993d e7ff e63d 8be8 8d3f 09a1 943e
00000070: 7ea3 0f3e 9b11 debd d5a5 0dbe 9cbc 9fbe
00000080: a03b 32be 05dd 833e bae4 ae3f 1241 1f3e
00000090: 2922 8e3d 3255 34bd 3d19 673f 778a bebe
000000a0: 6b4e 863d 3ee8 7e3d 70f2 a03f 62fb fa3d
000000b0: a3ca 633d 2447 b8bc 0283 9abe 6ff8 d0bc
000000c0: fc1e c63c e663 553d a2b2 0cbe 89b5 2ebe
000000d0: 8018 103d 574c 093e 2a3e 6bbf 1d24 d13e
000000e0: c5e9 953e 5d3f 0f3e 6230 933d c561 e83d
000000f0: e91b 8f3d 06ec f03d f346 703e 34d5 00be
00000100: 3529 93bb 7f42 b13e eac8 aa3f 006e ca3e
00000110: d21a 9d3d 1c66 c2bd f9e5 04bf be65 c03e
00000120: 9fcf 423e d0b9 09bf c6e6 b73e f97b 60be
00000130: e377 01be f2be 7fbd 23e6 55be 56b0 983c
00000140: c46b 553e 345b d3bd 001b e93e 1485 903d
00000150: 6cc9 f13b 65db 763e 1e28 95be a5c4 a43d
00000160: 6a17 c43d 5fe6 9abe a6d1 583f 7a86 16be
00000170: e830 01bc e095 293d 656b 1bbf a22a 443e
00000180: aedc e93d 3753 b4bd 7594 a63f 9095 3a3d
00000190: 4d55 8abc b21f c0bd 4a07 993e cb1b b43d
000001a0: a519 debd 572c 083f 6d7d 13bf 0244 b43e
000001b0: b99a 05be 29b2 cf3e 87a6 b03e 7f3f 893e
000001c0: 0c98 723e ea6f c43e e6e4 aabe 393f 803e
000001d0: 104e 183e 810f 8dbe 14be dc3c eee3 55be
000001e0: 5e88 91bd 4286 463c 56f6 1e3f 73b4 4ebe
000001f0: f597 d7bd f236 b63d d584 7d3f 23ba 5c3e
00000200: 3293 7b3e d17e afbe f956 8fbd 528d 243d
00000210: 55cb 183e aef1 fe3d 8b44 b43c fef3 6ebd
00000220: 427e a03e 6e36 863e 0a51 bc3f d19f d23e
00000230: 1c38 723d 3fd0 f4bd bb4f f73e ec2e 35be
00000240: ca36 9a3e d522 34be 30f5 3cbe 117d f53c
00000250: e7f7 0dbb b8eb 2abb efd0 9b3e e5be 58bd
00000260: 2346 8a3e 12b5 8b3e 1770 2e3f 4802 873e
00000270: e5b6 043e 4617 28bd 66ab 943f 421b b73e
00000280: c2db a43e 3a7a 403e a026 68bf edf2 86bb
00000290: 4a5f 743d ff3e d73c 4839 243f 3c5c 22be
000002a0: 6548 923e 5b44 f2be 9ed7 c63e 71f5 80be
000002b0: 8547 42be 9dc7 57be f082 afbe 9c53 50be
000002c0: 091a 383d 5cb1 a4be 8246 8f3d dbdf 5cbd
000002d0: fe52 9fbe 3937 f63e b8c6 3fbe 0a2c 983e
000002e0: 0021 54bd 8111 bcbe 1e60 d33e a2b6 8cbe
000002f0: c7e8 cb3e 89e0 ecbe b206 88bd eb5d 863c
00000300: e28c 753e 3d82 96be ab45 2f3f 6af5 28be
00000310: 3ce0 8ebe c1e3 d43e 3f57 8c3f e6d9 ba3e
00000320: f7a9 9d3d 5c3a 89be 7baf babe 6bf9 c9bd
00000330: f554 c3bd 3c53 ec3e 5344 573c 3a3d 713e
00000340: 25d2 d53e 7d67 7ebe 531f 823f ba7d 003e
00000350: bc93 29be 0f28 acbe e91d 0a3f 0565 2abe
00000360: aa1d 8c3e a419 e5bc 26cc 99bf 627d 21be
00000370: 447e 0d3e 91f7 68be 2345 e1be 089b 5a3e
00000380: 92dc c2be 7089 773e f2a3 ac3f 574b cd3e
00000390: 5ac5 86bd 1f31 c13e 75e0 bdbe 96be 4b3e
000003a0: 4650 843d 0561 4dbd d19e 8d3d e2ce 09be
000003b0: d158 06be 1ad1 c53e 0abe f6be 7793 d03d
000003c0: 87a2 493e d2c3 c83d fcf5 b43e 17ca e53c
000003d0: 2dd6 dcbd 480d 053f f20e bc3e c7d5 ce3d
000003e0: aa9e a9bb 1230 933e c300 a1bd f5de 8b3e
000003f0: 4820 5bbe 86bc cb3d df2a 913e 1386 c33d

fc1.bias f4 [256]
0.50203836 0.10691802 0.28846377 0.55409443 0.5515845 0.0700868 -0.039771404 0.07468147
-0.054780506 0.30484435 -0.02415895 0.50364727 0.5652844 0.13300861 -0.3954003 0.5486919
-0.08192785 0.21536389 0.20569772 -0.21765386 0.36511916 0.42843035 -0.008014808 0.34163433
0.09808628 0.72067493 0.23491602 0.5341154 0.20270239 0.619759 0.61946946 0.29991892
0.49893934 0.63223034 -0.32172075 0.29589865 0.04696135 0.48827955 -0.39191225 -0.22163011
-0.32788265 0.27049062 0.46532303 0.059189525 0.4135515 0.6083879 0.3692323 0.29225528
0.37622187 -0.21932553 0.11667327 0.5203185 -0.44948915 0.33753216 -0.22782902 0.15957408
-0.31373298 0.48473632 0.5246397 0.58873594 0.31801537 0.6330238 0.5591159 0.51145566
-0.09603763 -0.20547779 0.49987558 0.22000287 0.4435582 0.38014022 0.4782811 0.19278304
-0.27625203 0.053272568 0.5722244 0.19617848 0.5022294 0.45819348 0.4897725 0.17968723
0.104504935 -0.51422447 -0.11592717 0.57555777 -0.05410533 0.5149482 0.073970556 0.5537027
-0.61541057 -0.18116073 0.46304142 0.5138896 -0.46576336 0.03905943 0.4071064 -0.034256496
-0.10597834 -0.009660778 -0.05747387 0.52050537 -0.56737727 0.14512137 -0.023938453 0.33738205
0.19163424 0.6006727 -0.41646096 0.06797735 0.63296527 -0.6616324 -0.26095527 0.11649735
0.27990663 0.45043927 0.3282003 0.19380204 -0.43975902 0.10467025 0.40749773 0.30446061
0.1332941 0.15987667 0.5863926 -0.11336558 0.30195597 0.24027859 -0.2556118 0.37064618
0.1624119 -0.34768516 -0.38756463 0.11632684 0.48867798 0.5454174 0.16991633 -0.032948565
-0.09873281 0.46604475 1.0179479 -0.3459517 -0.10041194 0.2413864 -0.5097031 0.33999723
0.5575337 0.4980771 -0.014992261 0.4372357 0.24569912 -0.59054714 0.4070017 0.5106397
0.22016962 0.38144985 0.23593646 0.84775335 0.5044037 -0.3623768 0.26926127 -0.4916304
0.31860662 0.3871507 -0.117967054 -0.09961329 0.47191462 0.36931264 0.117562875 0.50143236
-0.3123397 0.118299544 0.17096929 0.39335933 0.046598576 -0.41775328 0.3028466 0.55601794
0.15702972 -0.36725327 -0.21056369 0.13380325 0.591506 0.5003684 0.25609034 0.58321023
-0.18227632 0.27058983 -0.5517959 0.3955564 0.64129376 0.29472882 0.24558112 0.44679523
0.30088794 0.0010130256 0.053576894 -0.093228236 0.2639142 -0.10090404 0.023840943 0.039379045
0.49919912 0.27639392 0.4750785 0.1194409 -0.464838 -0.37893805 0.06718423 0.2253331
0.31426752 0.39914778 0.5084431 0.14046715 0.23578203 0.19910948 0.49099663 0.6319108
0.51053 -0.10918283 0.3487448 0.3981581 0.47630814 0.32155332 0.49826953 -0.37355956
0.4140906 0.17684777 -0.009381349 0.42052022 0.4206992 0.10634439 0.46158037 0.399412
0.71149445 0.17045839 0.35393304 0.59510994 0.2613529 0.0668258 0.40998393 0.39438018
0.3860542 0.2791703 -0.4157996 -0.074552774 0.320594 0.29810196 -0.082823575 0.46109045
0.6615184 0.17484385 0.447836 0.69092363 0.5581045 0.58686036 0.50070727 0.50769454
00000000: 9685 003f d6f7 da3d 86b1 933e 22d9 0d3f
00000010: a434 0d3f ab89 8f3d 57e7 22bd 99f2 983d
00000020: 8661 60bd 8f14 9c3e fee8 c5bc 07ef 003f
00000030: 7ab6 103f 6933 083e e871 cabe 1377 0c3f
00000040: cac9 a7bd 5a88 5c3e 6ca2 523e a7e0 5ebe
00000050: e6f0 ba3e 395b db3e 8b50 03bc b2ea ae3e
00000060: 76e1 c83d 277e 383f d38d 703e c9bb 083f
00000070: 3791 4f3e 87a8 1e3f 8d95 1e3f f98e 993e
00000080: fa74 ff3e d9d9 213f 95b8 a4be 0780 973e
00000090: 8b5a 403d c7ff f93e b9a8 c8be 01f3 62be
000000a0: 3ce0 a7be bf7d 8a3e d23e ee3e b770 723d
000000b0: 06bd d33e 4fbf 1b3f 040c bd3e 7ca2 953e
000000c0: 27a0 c03e df96 60be 65f2 ee3d 9833 053f
000000d0: 7123 e6be 04d1 ac3e 034c 69be 6367 233e
000000e0: 9ca1 a0be 5c2f f83e ca4e 063f 66b7 163f
000000f0: e9d2 a23e d90d 223f 3822 0f3f c2ee 023f
00000100: 61af c4bd c568 52be b1ef ff3e 6f48 613e
00000110: 0f1a e33e bda1 c23e 43e1 f43e eb68 453e
00000120: e870 8dbe 5634 5a3d 4c7d 123f 03e3 483e
00000130: 1b92 003f 5698 ea3e 76c3 fa3e eeff 373e
00000140: af06 d63d 37a4 03bf 396b edbd c157 133f
00000150: 8d9d 5dbd a5d3 033f e07d 973d 76bf 0d3f
00000160: 8c8b 1dbf 3382 39be c413 ed3e 458e 033f
00000170: 8978 eebe c8fc 1f3d 4070 d03e 8a50 0cbd
00000180: 2c0b d9bd 3d48 1ebc b969 6bbd d73f 053f
00000190: a33f 11bf b29a 143e 931a c4bc 57bd ac3e
000001a0: c43b 443e b0c5 193f 5f3a d5be b537 8b3d
000001b0: 030a 223f be60 29bf ee9b 85be 2a96 ee3d
000001c0: ec4f 8f3e fa9f e63e df09 a83e 0b74 463e
000001d0: 1828 e1be 5b5d d63d 8ba3 d03e 43e2 9b3e
000001e0: 407e 083e b6b6 233e d31d 163f 372c e8bd
000001f0: f999 9a3e 970b 763e 8ddf 82be 56c5 bd3e
00000200: 4e4f 263e ca03 b2be df6e c6be c43c ee3d
00000210: 0034 fa3e 7aa0 0b3f 8cfe 2d3e 13f5 06bd
00000220: 6d34 cabd 6b9d ee3e 1e4c 823f 9520 b1be
00000230: c6a4 cdbd ff2d 773e e77b 02bf 1e14 ae3e
00000240: 87ba 0e3f f603 ff3e 1aa2 75bc 5cdd df3e
00000250: 8d98 7b3e 192e 17bf 8762 d03e 49b9 023f
00000260: 2574 613e 654d c33e 5499 713e 5d06 593f
00000270: 9a20 013f 7489 b9be 9ddc 893e fbb6 fbbe
00000280: 6820 a33e 9e38 c63e b698 f1bd 0d02 ccbd
00000290: cb9e f13e 8c16 bd3e cec4 f03d df5d 003f
000002a0: fdea 9fbe 0847 f23d 9312 2f3e 6566 c93e
000002b0: 26de 3e3d c2e3 d5be b60e 9b3e 3157 0e3f
000002c0: 66cc 203e 9f08 bcbe 029e 57be b803 093e
000002d0: f06c 173f 2518 003f 461e 833e 444d 153f
000002e0: a5a6 3abe c08a 8a3e 7f42 0dbf 5e86 ca3e
000002f0: d42b 243f b2e6 963e 9e79 7b3e 58c2 e43e
00000300: fc0d 9a3e 80c7 843a 7273 5b3d 72ee bebd
00000310: c31f 873e c7a6 cebd 154e c33c ec4b 213d
00000320: 0797 ff3e 8183 8d3e 7d3d f33e 6e9d f43d
00000330: 3fff edbe 2b04 c2be e397 893d b8bd 663e
00000340: ace7 a03e 195d cc3e 5429 023f 9fd6 0f3e
00000350: d870 713e 5be3 4b3e e963 fb3e e8c4 213f
00000360: 18b2 023f 3f9b dfbd ae8e b23e 61db cb3e
00000370: a9de f33e a3a2 a43e 2f1d ff3e 3343 bfbe
00000380: af03 d43e 9517 353e 3bb4 19bc 6d4e d73e
00000390: e365 d73e 16cb d93d 4354 ec3e bb7f cc3e
000003a0: 8024 363f a58c 2e3e b636 b53e 2059 183f
000003b0: 0cd0 853e f7db 883d 6ae9 d13e 33ec c93e
000003c0: e5a8 c53e 69ef 8e3e afe3 d4be 20af 98bd
000003d0: e624 a43e d2a0 983e 689f a9bd 0c14 ec3e
000003e0: 4559 293f 440a 333e c34a e53e 5fe0 303f
000003f0: f0df 0e3f 7b3c 163f 5a2e 003f 45f8 013f

ln1.weight f4 [256]
0.5035217 0.8295877 0.90350413 0.45428565 0.92764765 1.7788073 1.4272112 1.1869404
0.9631294 0.8052847 1.6891127 0.75210965 0.81228834 1.2981408 2.257599 0.48508435
1.5513235 0.83500874 0.88015217 0.94564795 0.46702024 0.69495535 1.21544 1.0164765
1.2035738 0.44335863 0.8439044 0.7466263 1.2881186 0.9141309 0.43417153 0.46724716
0.45837447 0.51048684 1.1840903 0.7590164 0.66526324 0.55010337 1.3095685 1.246631
0.9090784 0.946364 0.47050318 0.87219167 0.6690514 0.26225287 0.6798426 0.39633247
0.45245644 0.97303903 0.8060218 0.5092264 1.1246156 0.6738897 1.2118499 0.8215518
1.3911376 0.6711748 0.74986285 0.7397703 0.4102222 0.44991893 0.48314166 0.35663697
1.4883622 1.5205929 0.4962884 0.8905725 0.7345956 0.9584266 0.6351106 0.4336247
1.388584 0.9759832 0.7628367 1.3726664 0.6733844 0.29016972 0.7677201 1.0127069
0.8228806 1.432567 0.8957593 0.3529357 0.8855516 0.52135295 0.76227635 0.49921414
1.5355303 0.9050097 0.4632603 0.6385915 1.2149439 1.1008017 0.53816724 0.9986353
1.3787085 0.9076452 1.114898 0.5655556 2.8060255 0.8436744 1.271839 0.59989434
0.7614316 0.4344994 1.6427766 0.877886 0.46155304 1.5950754 1.3508077 0.9405887
0.7766626 0.3510716 0.6259156 1.2646878 1.6007947 1.1760571 0.53387594 0.62391007
1.0869856 1.029429 0.45891637 1.7680739 0.8351909 0.74525565 1.3679035 0.5511813
0.9711788 1.2100984 1.3907785 0.9309178 0.39036873 0.6107372 0.810635 1.2928205
0.7481548 0.32849094 0.16882077 1.4917673 0.9119174 0.655263 1.3963948 0.8259028
0.481459 1.1094285 0.9625312 0.9504016 0.7859328 1.7817596 0.59651273 0.53210735
0.6725569 0.46548072 1.0783275 0.24029511 0.8403539 1.1406895 0.74815273 1.269419
0.8739502 0.59242797 1.395995 1.2870728 0.51409644 1.0481424 0.7424869 0.7648984
1.0417697 1.2152249 1.0818846 0.69115776 1.204507 1.5010487 0.79529107 0.52731764
0.6985712 1.2143524 1.3670952 0.5520569 0.49426392 0.6751756 1.0685227 1.0072447
1.1114273 0.68940866 1.3488467 0.76094383 0.462284 0.712718 0.6339189 0.5612048
0.72113407 1.1931819 0.5257485 0.7128165 0.9328824 1.1991256 0.658536 1.4158322
0.4966034 0.5990358 0.637385 0.9569789 1.3297366 1.1162487 1.3932275 0.83465326
1.2457284 0.55010056 0.51422554 0.7604891 0.7150976 1.381586 0.6687622 0.2955746
0.7602037 0.8916428 0.69940674 0.49982128 0.65142727 0.60028344 0.7876392 1.3898512
0.50906086 0.5675379 0.69953436 0.2981719 0.5520333 1.3680763 0.61091614 0.5884702
0.36722523 1.0837787 0.4399958 0.40066415 0.7541874 1.2384896 0.80956876 0.6553511
0.6992489 0.79104525 1.0709401 0.8882214 0.5316332 0.88525885 0.789945 0.84767604
0.4171627 1.1670787 0.57668227 0.31843662 0.49817508 0.72811824 0.6153488 0.63225967
00000000: cce6 003f dc5f 543f 0c4c 673f 2198 e83e
00000010: 517a 6d3f f5af e33f dbae b63f aaed 973f
00000020: a68f 763f 2327 4e3f d834 d83f 428a 403f
00000030: 21f2 4f3f 7a29 a63f 817c 1040 fa5c f83e
00000040: c591 c63f 22c3 553f a751 613f fc15 723f
00000050: 471d ef3e 98e8 313f 8a93 9b3f e71b 823f
00000060: b50e 9a3f e7ff e23e 1e0a 583f e722 3f3f
00000070: 12e1 a43f 7c04 6a3f bb4b de3e 053b ef3e
00000080: 0fb0 ea3e 44af 023f 4590 973f e64e 423f
00000090: b14e 2a3f 93d3 0c3f f19f a73f 9b91 9f3f
000000a0: 5db9 683f e944 723f cbe5 f03e f447 5f3f
000000b0: f446 2b3f 0246 863e 2a0a 2e3f 17ec ca3e
000000c0: 5fa8 e73e 1619 793f 7257 4e3f a95c 023f
000000d0: 67f3 8f3f 0984 2c3f e61d 9b3f 3851 523f
000000e0: cc10 b23f 1dd2 2b3f 03f7 3f3f 9661 3d3f
000000f0: a508 d23e c65b e63e 585e f73e 1f99 b63e
00000100: a782 be3f caa2 c23f 8319 fe3e 8ffc 633f
00000110: 750e 3c3f 725b 753f 9c96 223f 0f04 de3e
00000120: 1fbd b13f 09da 793f 4449 433f 88b3 af3f
00000130: ec62 2c3f 2091 943e 4e89 443f 61a0 813f
00000140: 4ea8 523f 5b5e b73f 7b50 653f fdb3 b43e
00000150: 82b3 623f 6377 053f 8b24 433f ff98 ff3e
00000160: 428c c43f b7ae 673f 7430 ed3e bc7a 233f
00000170: 4883 9b3f 12e7 8c3f 54c5 093f 90a6 7f3f
00000180: 8579 b03f 705b 683f fab4 8e3f 40c8 103f
00000190: ec95 3340 0cfb 573f 9fcb a23f ad92 193f
000001a0: 2eed 423f b576 de3e 8146 d23f 23bd 603f
000001b0: ae50 ec3e 6e2b cc3f 44e7 ac3f 6cca 703f
000001c0: 5cd3 463f a8bf b33e 013c 203f 4ae1 a13f
000001d0: d7e6 cc3f 0a89 963f 18ac 083f 92b8 1f3f
000001e0: 5822 8b3f 54c4 833f 16f7 ea3e 3f50 e23f
000001f0: 12cf 553f 13c9 3e3f 7617 af3f 381a 0d3f
00000200: 2d9f 783f 81e4 9a3f 0805 b23f a150 6e3f
00000210: 69de c73e 4659 1c3f c685 4f3f 247b a53f
00000220: 1387 3f3f f72f a83e 5adf 2c3e 3bf2 be3f
00000230: 6b73 693f 51bf 273f 11bd b23f 5e6e 533f
00000240: cb81 f63e c101 8e3f 7268 763f 854d 733f
00000250: e432 493f b310 e43f 0fb5 183f 3038 083f
00000260: b02c 2c3f 7d53 ee3e a306 8a3f ec0f 763e
00000270: 6f21 573f 1d02 923f f086 3f3f 527c a23f
00000280: 33bb 5f3f 5ca9 173f f7af b23f cdbe a43f
00000290: d39b 033f 8829 863f 9f13 3e3f 62d0 433f
000002a0: b658 853f 7d8c 9b3f 327b 8a3f b7ef 303f
000002b0: 492d 9a3f 5d22 c03f 3298 4b3f 4afe 063f
000002c0: 90d5 323f e66f 9b3f fafc ae3f 9a53 0d3f
000002d0: 2910 fd3e 4fd8 2c3f 5ac5 883f 65ed 803f
000002e0: 4043 8e3f 167d 303f 02a7 ac3f 37cd 423f
000002f0: 7db0 ec3e b074 363f 8248 223f 1eab 0f3f
00000300: 3e9c 383f 2fba 983f 7497 063f 247b 363f
00000310: 62d1 6e3f f37c 993f d195 283f fd39 b53f
00000320: cd42 fe3e 695a 193f aa2b 233f 92fc 743f
00000330: cf34 aa3f 3de1 8e3f 4755 b23f d6ab 553f
00000340: 0774 9f3f 64d3 0c3f 49a4 033f 6aaf 423f
00000350: a310 373f cfd7 b03f 0034 2b3f 8e55 973e
00000360: b69c 423f b442 643f 520c 333f 93e8 ff3e
00000370: f0c3 263f 2dac 193f b9a2 493f a5e6 b13f
00000380: d051 023f 2a4a 113f af14 333f fda9 983e
00000390: 0e52 0d3f 201d af3f 0065 1c3f fca5 163f
000003a0: f204 bc3e 43b9 8a3f 2147 e13e da23 cd3e
000003b0: 6d12 413f d486 9e3f e63f 4f3f 17c5 273f
000003c0: fa01 333f f181 4a3f 9114 893f 7a62 633f
000003d0: 1d19 083f 53a0 623f d639 4a3f 4c01 593f
000003e0: 5996 d53e d662 953f 73a1 133f 200a a33e
000003f0: ce10 ff3e f565 3a3f 8087 1d3f c5db 213f

ln1.bias f4 [256]
-0.49195132 -0.4605606 -0.3154619 -0.46479052 -0.17230216 0.05920242 0.07478134 -0.27268186
-0.21936631 -0.2880204 0.016472837 -0.34174305 -0.26227912 -0.018928418 0.07210659 -0.43985343
0.08807021 -0.14954993 -0.19219644 -0.12386778 -0.5371282 -0.34832975 -0.12672754 -0.090837225
-0.103504896 -0.6061887 -0.23627509 -0.22060233 0.04579836 -0.20140244 -0.5847973 -0.5469711
-0.48130423 -0.44653878 0.07765878 -0.21408987 -0.39930722 -0.5133505 -0.034470573 -0.07969685
-0.11272337 -0.3488729 -0.45312572 -0.3197782 -0.42973995 -0.64618367 -0.40534002 -0.6097337
-0.5224657 -0.26037553 -0.17342561 -0.4522128 -0.024143199 -0.4528247 -0.080221124 -0.28300267
0.07947914 -0.33714634 -0.31296065 -0.23432793 -0.58972067 -0.30775002 -0.46984732 -0.59466594
0.022820115 0.03366983 -0.46762076 -0.28779173 -0.27640992 -0.074902795 -0.40641245 -0.62810445
0.022910079 -0.14400604 -0.30779496 -0.030015975 -0.18771595 -0.52410954 -0.28065303 -0.2948236
-0.21241033 0.025293179 -0.22287624 -0.5393371 -0.33608347 -0.3913804 -0.23380136 -0.45033628
-0.07139044 -0.17612942 -0.58241034 -0.3902539 -0.13178319 -0.16575602 -0.4770196 -0.0797024
-0.21021008 -0.30102247 -0.13112974 -0.37951598 0.036647987 -0.12536325 -0.23089169 -0.32864645
-0.29940444 -0.59639764 0.0108145075 -0.2451328 -0.5655538 -0.004505719 0.05856768 -0.29659647
-0.3338053 -0.63413626 -0.21849564 -0.07746856 -0.042256642 -0.114208706 -0.52536595 -0.35661694
0.045169864 -0.34937912 -0.47257942 0.10275146 -0.25239354 -0.28047824 -0.004091555 -0.4713881
-0.10756694 -0.037034366 -0.057264253 -0.28466523 -0.48648566 -0.2848342 -0.25614816 -0.1318665
-0.40428382 -0.58197784 -0.555252 -0.022611773 -0.0969617 -0.4290029 -0.09189747 -0.28491682
-0.37850755 -0.056996938 -0.35645705 -0.20865525 -0.2610565 0.045314185 -0.49100602 -0.47889963
-0.5091519 -0.42109635 -0.17825639 -0.61537254 -0.26153958 -0.11852211 -0.25868535 -0.05000536
-0.3310138 -0.44208223 -0.030102631 -0.021891385 -0.4355533 -0.116977856 -0.31567386 -0.26126763
0.00061131327 -0.10566679 -0.16996571 -0.28001565 -0.22362582 0.050121218 -0.3197434 -0.46976778
-0.5053281 0.09774901 0.18552905 -0.38973874 -0.4554889 -0.4628545 -0.081843026 -0.16641156
-0.12897311 -0.2088844 0.006895823 -0.2669749 -0.5023198 -0.22728422 -0.29835847 -0.4447213
-0.35113522 -0.2773625 -0.5598234 -0.4218299 -0.18270352 0.03451455 -0.2303346 -0.025588488
-0.57939976 -0.36807135 -0.40261346 -0.17726965 -0.011989797 -0.17743698 -0.06753304 -0.2381938
-0.007166055 -0.30654234 -0.32787466 -0.15619127 -0.22777383 0.01297631 -0.34630597 -0.6155994
-0.25814545 -0.21675324 -0.25194865 -0.58698153 -0.42750114 -0.46477556 -0.31300238 0.0059015956
-0.510075 -0.43091312 -0.27206048 -0.63552326 -0.39010566 -0.23857751 -0.27502763 -0.3865814
-0.5254403 -0.18420866 -0.21655548 -0.47001597 -0.34284717 -0.13393168 -0.26447955 -0.29268223
-0.35358793 -0.35808477 -0.11935326 -0.12692009 -0.38643408 -0.31331336 -0.18681112 -0.19657072
-0.50028044 -0.1180665 -0.52101725 -0.6265727 -0.5504352 -0.32527816 -0.3510486 -0.3810963
00000000: 0be1 fbbe 99ce ebbe 3984 a1be 06f9 edbe
00000010: fa6f 30be 3d7e 723d f626 993d f59c 8bbe
00000020: 90a1 60be 6977 93be 0bf2 863c f2f8 aebe
00000030: 7349 86be c50f 9bbc 9fac 933d 7834 e1be
00000040: 275e b43d 9e23 19be 25cf 44be 64ae fdbd
00000050: 3c81 09bf 4758 b2be ddc4 01be de08 babd
00000060: 60fa d3bd 2f2f 1bbf 19f2 71be 94e5 61be
00000070: 1097 3b3d 713c 4ebe 47b5 15bf 4c06 0cbf
00000080: 826d f6be bba0 e4be 910b 9f3d 603a 5bbe
00000090: ff71 ccbe f06a 03bf 0431 0dbd 1a38 a3bd
000000a0: 83db e6bd 789f b2be 1800 e8be f8b9 a3be
000000b0: e006 dcbe 4b6c 25bf ba88 cfbe 8217 1cbf
000000c0: 50c0 05bf f14f 85be 7c96 31be 7088 e7be
000000d0: f5c7 c5bc a4d8 e7be f94a a4bd bae5 90be
000000e0: f6c5 a23d 729e acbe 613c a0be a9f3 6fbe
000000f0: eff7 16bf 6991 9dbe d48f f0be 073c 18bf
00000100: 40f1 ba3c 60e9 093d fd6b efbe 7059 93be
00000110: 9a85 8dbe a366 99bd 4b15 d0be 74cb 20bf
00000120: ebad bb3c 5276 13be 4d97 9dbe 10e4 f5bc
00000130: 9c38 40be 0b2c 06bf c1b1 8fbe 1ef3 96be
00000140: 1882 59be a433 cf3c ab39 64be ff11 0abf
00000150: 2213 acbe 0363 c8be a069 6fbe 7a92 e6be
00000160: 2735 92bd 455b 34be d818 15bf 5ccf c7be
00000170: 2cf2 06be f2bb 29be ea3b f4be 033b a3bd
00000180: 5041 57be 9e1f 9abe e046 06be eb4f c2be
00000190: 331c 163d 395f 00be df6e 6cbe 5944 a8be
000001a0: 8a4b 99be 84ad 18bf 552f 313c 1804 7bbe
000001b0: 22c8 10bf b6a4 93bb aae4 6f3d 7edb 97be
000001c0: 87e8 aabe c156 22bf 52bd 5fbe d6a7 9ebd
000001d0: 4d15 2dbd 41e6 e9bd 627e 06bf 7f96 b6be
000001e0: 0904 393d d2e1 b2be eef5 f1be 5c6f d23d
000001f0: ba39 81be d89a 8fbe 7312 86bb c859 f1be
00000200: 0e4c dcbd 59b1 17bd ec8d 6abd a4bf 91be
00000210: a614 f9be cad5 91be da25 83be 0308 07be
00000220: 4afe cebe 80fc 14bf ff24 0ebf 533c b9bc
00000230: db93 c6bd 45a6 dbbe be34 bcbd 9ee0 91be
00000240: becb c1be 9f75 69bd 8a81 b6be b9a9 55be
00000250: 33a9 85be 5e9b 393d 2465 fbbe 5532 f5be
00000260: c757 02bf f199 d7be d888 36be 0e89 1dbf
00000270: 84e8 85be b8bb f2bd 6872 84be 6cd2 4cbd
00000280: a47a a9be 9a58 e2be cb99 f6bc 9055 b3bc
00000290: d800 dfbe 1692 efbd 01a0 a1be dfc4 85be
000002a0: 8a40 203a d467 d8bd 7e0b 2ebe 365e 8fbe
000002b0: 2bfe 64be e84b 4d3d 68b5 a3be 6785 f0be
000002c0: 2f5d 01bf a230 c83d 54fb 3d3e d68b c7be
000002d0: d735 e9be 44fb ecbe 519d a7bd cb67 2abe
000002e0: 8711 04be cbe5 55be 5bf6 e13b efb0 88be
000002f0: 0898 00bf 32bd 68be 71c2 98be 83b2 e3be
00000300: ffc7 b3be 7502 8ebe 9650 0fbf 17fa d7be
00000310: a216 3bbe 215f 0d3d d5dc 6bbe f39e d1bc
00000320: 8b53 14bf d973 bcbe 5a23 cebe 2d86 35be
00000330: db70 44bc 0ab2 35be c34e 8abd 13e9 73be
00000340: 3ad1 eabb 1ef3 9cbe 30df a7be 9bf0 1fbe
00000350: 8b3d 69be 979a 543c 044f b1be ec97 1dbf
00000360: a42b 84be 90f4 5dbe 6aff 80be 6c44 16bf
00000370: 6ee1 dabe 10f7 edbe d941 a0be 2c62 c13b
00000380: 4694 02bf a5a0 dcbe 834b 8bbe a7b1 22bf
00000390: eebb c7be aa4d 74be 6cd0 8cbe ffed c5be
000003a0: 4183 06bf 32a1 3cbe b8c0 5dbe efa5 f0be
000003b0: aa89 afbe 6325 09be dd69 87be 72da 95be
000003c0: 7a09 b5be e356 b7be 7b6f f4bd 57f7 01be
000003d0: b0da c5be 9c6a a0be 6a4b 3fbe d649 49be
000003e0: 6112 00bf d9cc f1bd 6361 05bf 1267 20bf
000003f0: 52e9 0cbf dc8a a6be a4bc b3be 0e1f c3be

fc2.weight f4 [128, 256]
0.24643151 0.10353092 -1.0724416 -0.13339022 -0.04509163 0.71473974 0.8871587 0.45092285
0.48947293 -0.37048507 0.38368386 -0.31154707 -0.22866102 0.19691323 0.10980222 0.050236423
0.44768044 -0.21007234 0.00818247 0.46335793 0.06685064 0.13200402 -0.10874896 -0.52658886
0.44513422 0.7782914 0.17483974 -0.030700907 0.07402218 -0.21031977 -0.112910874 0.14068455
-0.20671494 -0.019737314 0.26311463 0.026674727 0.14640796 -0.3120543 0.4445033 0.26199055
0.10218973 -0.2581569 0.0133286975 -0.2581205 -0.030282151 -0.032760493 -0.10334565 0.0354275
0.18735874 0.33213228 -0.34713626 -0.35558733 0.20160978 -0.15307903 -0.18508169 -0.030913426
0.41726476 -0.43501586 -0.028391475 -0.4744972 0.1467405 -0.27374706 -0.43066356 -0.06920139
-0.111598015 -0.36363173 -0.00938899 -0.54280317 -0.56202817 -0.48841855 -0.39271614 0.13988641
0.06983872 0.074951515 -0.10042887 -0.0811912 -0.03152492 -0.049371384 -0.19328427 0.73695165
-0.15868609 -0.04408379 0.5669023 0.03531915 0.33438835 -0.41578245 0.5178365 -0.21211502
-0.08550952 0.25264093 0.3752848 -0.55010056 0.2599887 0.16878015 0.1488561 0.18110748
0.43162706 -0.32828757 0.38544586 -0.1884542 -0.19594677 0.038948283 0.080750756 -0.071867615
0.09627352 0.089041404 -0.15014738 0.25061876 -0.56010455 0.06005006 0.30864584 0.55058086
0.020418882 0.046821184 0.030418789 0.071000285 0.04683459 -0.18925348 -0.496614 0.2273258
-0.05574945 -0.13648258 0.5808888 0.44264966 0.5048642 -0.058653817 0.020751482 -0.09897942
-0.04322918 0.33587483 -0.030503338 0.27507985 -0.35584432 -0.050991308 -0.04217575 0.31953683
0.38848448 -0.106729284 -0.19146909 -0.38962844 0.35017252 -0.055717252 0.72174263 -0.11287626
0.0052534943 -0.31425837 0.37798578 -0.22519845 -0.34155336 0.26886493 -0.016189834 -0.33810335
0.26387227 0.31781998 -0.43134966 0.07798883 -0.4849336 0.28081185 -0.07230037 0.34951663
0.11550519 0.24940757 0.28489602 -0.09079003 -0.3646717 -0.338421 0.65251046 0.043541018
0.030332332 0.26285213 0.8347553 -0.3025112 -0.41428146 -0.064167686 -0.09378372 -0.1339477
0.23650642 0.14650713 -0.6697985 0.068740144 -0.117890455 -0.78355616 -0.22324407 -0.40180466
0.010160667 0.10073238 0.41716343 -0.16967446 -0.0035425501 -0.10851226 -0.33828735 -0.2525659
0.7196549 0.13816434 -0.14640738 0.8449599 0.28907144 0.24388665 -0.036370605 0.6415196
-0.25438288 0.21323545 -0.027460584 -0.68404293 0.97768384 0.50906646 0.8383538 0.21243662
-0.36790198 -0.07577482 -0.15053725 -0.048372686 0.18204696 0.12651427 -0.63439786 0.051303335
0.1558136 -0.21357122 0.16732828 0.12088482 0.056346595 -0.30087516 -0.121078484 0.056759518
-0.02718664 0.0731008 -0.11885736 -0.16690658 0.022276616 0.23328179 -0.30924237 -0.3099649
-0.025208276 0.0105084805 -0.23502716 -0.25303066 0.091141246 0.8891815 -0.1567093 0.07206279
-0.07189205 -0.26079896 0.4148179 0.075767055 0.27832174 -0.027042557 0.8358381 0.073476486
-0.21705882 0.19290982 -0.2752 0.056266386 0.07382463 -0.096653946 -0.20596069 0.14579213
00000000: 8b58 7c3e 0508 d43d c445 89bf 7297 08be
00000010: 00b2 38bd 2ff9 363f d51c 633f 5cdf e63e
00000020: 329c fa3e 38b0 bdbe 3672 c43e 1983 9fbe
00000030: 1d26 6abe 9fa3 493e fcdf e03d b5c4 4d3d
00000040: 5f36 e53e 341d 57be c40f 063c 403d ed3e
00000050: fde8 883d 102c 073e c6b7 debd 87ce 06bf
00000060: a2e8 e33e 1b3e 473f 3009 333e 7880 fbbc
00000070: f198 973d 115e 57be d13d e7bd 9c0f 103e
00000080: 15ad 53be 26b0 a1bc f6b6 863e f584 da3c
00000090: f8eb 153e 95c5 9fbe f095 e33e a023 863e
000000a0: d948 d13d 242d 84be 9c60 5a3c 5f28 84be
000000b0: 4612 f8bc de2f 06bd e2a6 d3bd 6d1c 113d
000000c0: f8da 3f3e 3e0d aa3e d8bb b1be 8b0f b6be
000000d0: cb72 4e3e c0c0 1cbe 0e86 3dbe 273e fdbc
000000e0: baa3 d53e 66ba debe 3d95 e8bc 4cf1 f2be
000000f0: 2443 163e 9328 8cbe ef7f dcbe 75b9 8dbd
00000100: 808d e4bd f02d babe 47d4 19bc 26f5 0abf
00000110: 14e1 0fbf ff11 fabe 1712 c9be 623e 0f3e
00000120: 9a07 8f3d 2e80 993d a7ad cdbd 9247 a6bd
00000130: 4620 01bd a639 4abd 50ec 45be dda8 3c3f
00000140: 9b7e 22be 3491 34bd 8220 113f d0aa 103d
00000150: f334 ab3e 70e1 d4be ef90 043f ae34 59be
00000160: 9d1f afbd 275a 813e 5425 c03e 64d3 0cbf
00000170: 3d1d 853e b4d4 2c3e bc6d 183e 3d74 393e
00000180: 39fe dc3e 4f15 a8be 2959 c53e 23fa 40be
00000190: 45a6 48be 3c88 1f3d a760 a53d 542f 93bd
000001a0: 0d2b c53d 575b b63d 3cc0 19be 1a51 803e
000001b0: 0363 0fbf 0df7 753d d406 9e3e def2 0c3f
000001c0: 8045 a73c 92c7 3f3d d330 f93c 9968 913d
000001d0: a1d5 3f3d aacb 41be 3144 febe 18c8 683e
000001e0: 8959 64bd 17c2 0bbe 21b5 143f faa2 e23e
000001f0: c83e 013f fc3e 70bd 03ff a93c b9b5 cabd
00000200: 1511 31bd c9f7 ab3e 23e2 f9bc 44d7 8c3e
00000210: 3a31 b6be 43dc 50bd 7bc0 2cbd 559a a33e
00000220: 70e7 c63e e294 dabd 7910 44be 617d c7be
00000230: d049 b33e c637 64bd 20c4 383f ab2b e7bd
00000240: 8125 ac3b 79e6 a0be 5a87 c13e 6c9a 66be
00000250: 15e0 aebe aaa8 893e 8ba0 84bc e21b adbe
00000260: 441a 873e 4db9 a23e ddd9 dcbe 9cb8 9f3d
00000270: 3849 f8be 92c6 8f3e 3712 94bd d8f3 b23e
00000280: fc8d ec3d b364 7f3e e4dd 913e 20f0 b9bd
00000290: 40b6 babe 8445 adbe ed0a 273f 1158 323d
000002a0: 837b f83c 8e94 863e 86b2 553f bfe2 9abe
000002b0: b31c d4be 596a 83bd ae11 c0bd 9629 09be
000002c0: bd2e 723e f705 163e ea77 2bbf a2c7 8c3d
000002d0: 8d70 f1bd 2397 48bf 189a 64be 57b9 cdbe
000002e0: ed78 263c c74c ce3d 7296 d53e 24bf 2dbe
000002f0: 212a 68bb ad3b debd 0034 adbe 5150 81be
00000300: 4e3b 383f f47a 0d3e d1eb 15be 4b4f 583f
00000310: 2c01 943e 6cbd 793e 58f9 14bd a13a 243f
00000320: 793e 82be 655a 5a3e 05f5 e0bc 701d 2fbf
00000330: 7d49 7a3f 2e52 023f 5b9e 563f fc88 593e
00000340: a65d bcbe d42f 9bbd 7026 1abe 7022 46bd
00000350: 856a 3a3e f58c 013e e667 22bf 7223 523d
00000360: 9a8d 1f3e 6ab2 5abe 1b58 2b3e 7692 f73d
00000370: b0cb 663d 4f0c 9abe fff7 f7bd ab7c 683d
00000380: 84b6 debc dfb5 953d 7d6b f3bd 8fe9 2abe
00000390: 737d b63c 6ce1 6e3e 0455 9ebe b8b3 9ebe
000003a0: 9681 cebc c32b 2c3c f6aa 70be 3c8d 81be
000003b0: 43a8 ba3d 66a1 633f 6778 20be a895 933d
000003c0: 243c 93bd 7187 85be 0363 d43e c22b 9b3d
000003d0: 3080 8e3e 5a88 ddbc 7cf9 553f d77a 963d
000003e0: ab44 5ebe 278a 453e 04e7 8cbe 9577 663d
000003f0: 5e31 973d 81f2 c5bd 5ce7 52be 884a 153e

fc2.bias f4 [128]
-0.10675691 0.16081305 -0.011207956 0.17799792 0.13403507 0.0002877046 -0.12936608 -0.00824062
0.012352168 0.04179112 0.018785339 0.07304386 0.02848542 0.039389994 -0.046832446 0.15880324
0.067459024 0.14379175 0.1253004 -0.10008677 -0.08808123 -0.09761296 0.0069888653 0.07152277
-0.039180335 0.21636903 -0.0011778099 0.035083473 0.1575229 0.050462615 0.08575993 -0.0820827
-0.07568686 0.1508906 -0.07182269 0.021625062 -0.11218228 0.05989845 0.009123248 0.0868409
0.013065255 -0.11619738 -0.08675418 0.10646086 -0.011892668 -0.15381533 -0.0509172 0.19348776
-0.046077743 0.044481665 -0.0101756295 0.15959154 0.04730085 -0.07362457 0.05031296 0.06499429
-0.09317896 0.17204058 0.115213685 -0.07211789 0.04932537 -0.028986322 0.17675 -0.01905072
0.117697075 -0.09347382 -0.002330596 0.032250676 0.07606235 -0.10345706 0.13797386 -0.056149397
0.059462607 0.11001225 0.03625189 2.1853319e-05 0.05245816 0.15423742 0.10133818 0.012327835
-0.11067652 0.05801507 0.1755979 -0.025075946 0.110403575 -0.069910474 -0.08029116 0.07956351
-0.06641458 0.14349566 0.043492693 0.11166153 0.05635169 -0.0066910214 -0.03970854 -0.034730095
0.09546936 0.18109384 0.17185657 0.14775126 0.17585745 0.11338449 -0.12554173 0.18145989
-0.05830155 -0.056823395 0.10782455 -0.10524129 0.04495227 0.08564222 0.1030238 -0.044392407
0.14512742 -0.051234916 0.12108301 -0.09540531 0.059371345 0.06443291 0.047558423 -0.01114055
0.09404798 0.077710725 -0.048678793 0.0258627 -0.06013771 0.18323676 0.057705387 -0.05348133
00000000: 5ea3 dabd 2dac 243e 93a1 37bc 1645 363e
00000010: 7d40 093e 0fd7 9639 8b78 04be aa03 07bc
00000020: bf60 4a3c 2a2d 2b3d b6e3 993c 0598 953d
00000030: 415a e93c 6757 213d 61d3 3fbd 519d 223e
00000040: f527 8a3d 253e 133e c04e 003e 4bfa ccbd
00000050: ef63 b4bd 4ee9 c7bd da02 e53b 887a 923d
00000060: 8f7b 20bd d88f 5d3e be60 9aba b0b3 0f3d
00000070: af4d 213e e3b1 4e3d e7a2 af3d fa1a a8bd
00000080: b601 9bbd 1183 1a3e c617 93bd 0b27 b13c
00000090: d3bf e5bd 1458 753d ad79 153c a4d9 b13d
000000a0: a70f 563c e4f8 edbd 2dac b1bd 2708 da3d
000000b0: 77d9 42bc c481 1dbe 8e8e 50bd a821 463e
000000c0: 04bc 3cbd 6832 363d afb7 26bc f76b 233e
000000d0: 89be 413d 7bc8 96bd f614 4e3d ba1b 853d
000000e0: 9cd4 bebd 682b 303e 27f5 eb3d 8bb2 93bd
000000f0: 6609 4a3d b974 edbc f4fd 343e 4110 9cbc
00000100: 2a0b f13d 346f bfbd eabc 18bb 4919 043d
00000110: 94c6 9b3d 4ce1 d3bd 0549 0d3e e9fc 65bd
00000120: 108f 733d 1a4e e13d dd7c 143d a551 b737
00000130: 5ede 563d 6af0 1d3e 648a cf3d b0fa 493c
00000140: 5faa e2bd 36a1 6d3d f0cf 333e 126c cdbc
00000150: 451b e23d 392d 8fbd b16f a4bd 32f2 a23d
00000160: 5e04 88bd 87f0 123e 6525 323d cdae e43d
00000170: 08d1 663d 5b40 dbbb 6ca5 22bd 2541 0ebd
00000180: 7185 c33d aa70 393e 2bfb 2f3e 1b4c 173e
00000190: fa13 343e 2136 e83d 038e 00be 9fd0 393e
000001a0: 9bcd 6ebd a6bf 68bd 1ed3 dc3d bf88 d7bd
000001b0: df1f 383d 3065 af3d 24fe d23d d0d4 35bd
000001c0: 489c 143e b4db 51bd 5ffa f73d dc63 c3bd
000001d0: 5e2f 733d 67f5 833d 9fcc 423d da86 36bc
000001e0: 3a9c c03d cd26 9f3d 6a63 47bd 03de d33c
000001f0: f652 76bd 6ba2 3b3e 7c5c 6c3d 3d0f 5bbd

ln2.weight f4 [128]
1.0957627 0.96788925 0.9286645 1.0920358 0.9682652 1.4035999 0.71151227 1.779046
1.5939323 1.0243194 1.0759124 1.4349852 0.9305969 0.99912745 1.9042424 1.0148436
0.8611335 0.8864081 1.0247737 2.2441602 1.7258257 1.1656804 0.8722749 1.034273
1.6346191 0.92883587 0.8759094 0.9200266 0.98184663 1.0449125 1.2167897 1.9601929
1.1969563 1.0204306 0.8012753 1.0084187 0.82835394 1.0823379 1.0294067 0.9919294
1.2812976 1.1146669 1.274385 1.112401 1.3399721 1.3912481 1.5140018 0.87983257
0.92938644 1.0055184 0.54913616 0.93683714 0.93477 1.0967773 1.8141537 1.1132256
2.0533643 0.95034385 1.220331 2.024775 0.9073046 0.63176036 1.0136135 0.6618942
0.9640502 1.4018911 0.90756476 1.3735852 1.0519472 0.8463112 0.99986076 1.9074624
1.0497035 0.88835424 1.0581946 1.5600054 1.0623045 0.82602596 1.0931478 1.9665034
0.48819992 1.634044 1.0125977 0.92246693 1.2813053 1.2221644 1.7399284 0.9753275
2.4485252 1.040173 1.2201576 0.9536456 1.0574266 1.2478786 2.0739458 0.9468605
0.92042375 0.8770283 1.0267012 0.877142 1.1741935 1.0603939 1.0460132 1.0197519
1.3519323 1.2876579 1.0681571 1.2717482 0.9167279 1.1138488 0.82875615 0.627981
0.9035702 1.2651362 0.9193129 1.2255623 1.0234727 1.1748549 0.9827437 1.2737511
1.3145984 1.0739536 1.0298744 0.912486 1.4048913 1.0555599 2.0039823 1.1918427
00000000: f441 8c3f 97c7 773f f5bc 6d3f d4c7 8b3f
00000010: 3ae0 773f 29a9 b33f ab25 363f c8b7 e33f
00000020: f905 cc3f e61c 833f 7fb7 893f 98ad b73f
00000030: 993b 6e3f d1c6 7f3f 37be f33f 65e6 813f
00000040: 3f73 5c3f a4eb 623f c92b 833f 52a0 0f40
00000050: dbe7 dc3f 0435 953f 684d 5f3f 0f63 843f
00000060: 333b d13f 30c8 6d3f 993b 603f dd86 6b3f
00000070: 4d5a 7b3f b1bf 853f c4bf 9b3f 9ae7 fa3f
00000080: dd35 993f 789d 823f 6120 4d3f dd13 813f
00000090: 010f 543f 0c8a 8a3f 99c3 833f 16ef 7d3f
000000a0: 8f01 a43f 68ad 8e3f 0c1f a33f 2863 8e3f
000000b0: 3584 ab3f 6b14 b23f d0ca c13f b53c 613f
000000c0: 45ec 6d3f d4b4 803f 3094 0c3f 8fd4 6f3f
000000d0: 164d 6f3f 3363 8c3f 3036 e83f 2d7e 8e3f
000000e0: 526a 0340 bc49 733f ce33 9c3f ea95 0140
000000f0: 1d45 683f 0cbb 213f 16be 813f e671 293f
00000100: fecb 763f 2b71 b33f 2a56 683f a4d1 af3f
00000110: 35a6 863f daa7 583f e0f6 7f3f ba27 f43f
00000120: af5c 863f 2f6b 633f ec72 873f 42ae c73f
00000130: 98f9 873f 7076 533f 44ec 8b3f 62b6 fb3f
00000140: 57f5 f93e 5b28 d13f cd9c 813f cb26 6c3f
00000150: d001 a43f e26f 9c3f f9b5 de3f 10af 793f
00000160: a3b4 1c40 6424 853f 202e 9c3f 1e22 743f
00000170: c159 873f 7cba 9f3f 87bb 0440 7365 723f
00000180: e4a0 6b3f ed84 603f f26a 833f 618c 603f
00000190: f94b 963f fdba 873f c3e3 853f 3b87 823f
000001a0: 1e0c ad3f f9d1 a43f 5fb9 883f a5c8 a23f
000001b0: aeae 6a3f 9992 8e3f 5d29 543f 5dc3 203f
000001c0: 6050 673f fcef a13f 1758 6b3f 3adf 9c3f
000001d0: 2701 833f a561 963f 1795 7b3f 470a a33f
000001e0: c344 a83f 5077 893f edd2 833f af98 693f
000001f0: 7ad3 b33f 961c 873f 3f41 0040 4d8e 983f

ln2.bias f4 [128]
-0.48937196 0.02493254 0.007756776 0.04886299 -0.15900058 0.27605042 -0.5510731 0.049584184
-0.10499248 0.015295888 -0.07836475 -0.11910409 0.09388608 0.029512756 -0.059970267 0.035515297
-0.1707528 -0.015702557 0.009573041 -0.26823375 -0.17752095 -0.11295819 0.021951672 -0.027546896
-0.3067898 0.030555991 -0.43789953 0.031901944 0.035338297 0.015625061 -0.16872714 -0.11918264
-0.224446 0.044629462 -0.64231384 0.001848166 -0.34937367 0.055464752 0.011216098 0.04567782
-0.0803825 -0.006572262 -0.4221371 0.09382573 -0.013914966 -0.23822978 -0.1258865 0.026494607
-0.32993877 0.04978246 -0.53180546 0.05881265 -0.10626185 -0.21636258 -0.42389008 0.054599695
-0.19787842 -0.05074298 -0.16769624 -0.32826257 -0.068461515 -0.27749887 0.024309207 -0.46902534
0.030102745 -0.0038330643 0.07649174 0.112061895 0.046004172 -0.26498505 0.041174203 -0.30643338
0.088634655 -0.03842996 0.053579524 0.115711905 0.029380087 -0.06650245 0.042074576 -0.14293514
-0.5736742 0.0025753072 0.021353321 -0.16324504 0.03339874 -0.245994 -0.22446239 0.025176559
-0.048757315 0.05301977 0.30054083 0.035830673 -0.07834193 -0.34782487 -0.17261852 0.02670256
-0.013005356 -0.027721044 0.024241054 0.025673911 0.062456023 0.056946665 -0.29062974 0.026611812
-0.42783117 -0.23321521 0.00043672978 -0.12371781 0.08992067 0.09040653 -0.057342105 -0.21909943
-0.021983285 -0.12685874 0.0008258854 -0.3711797 0.02524362 -0.27915522 -0.006424251 -0.417145
0.020872958 0.01946294 -0.33473703 -0.16051945 -0.30182293 0.039981846 -0.23251954 -0.23050287
00000000: f68e fabe 533f cc3c 8e2c fe3b 8f24 483d
00000010: 0cd1 22be 7b56 8d3e 2013 0dbf c918 4b3d
00000020: 4c06 d7bd 9b9b 7a3c b37d a0bd d8ec f3bd
00000030: 5847 c03d bcc4 f13c 62a3 75bd 7d78 113d
00000040: d2d9 2ebe a6a2 80bc 3fd8 1c3c ef55 89be
00000050: 0dc8 35be a056 e7bd fed3 b33c 07aa e1bc
00000060: 8d13 9dbe 8f50 fa3c 5e34 e0be 9dab 023d
00000070: e4be 103d 2100 803c cfc6 2cbe 0716 f4bd
00000080: 2cd5 65be 62cd 363d ae6e 24bf 293e f23a
00000090: 1be1 b2be 022f 633d bac3 373c aa18 3b3d
000000a0: 959f a4bd 215c d7bb 5b22 d8be b427 c03d
000000b0: 99fb 63bc 82f2 73be 64e8 00be 380b d93c
000000c0: bced a8be b1e8 4b3d 6724 08bf 89e5 703d
000000d0: d09f d9bd 278e 5dbe 1f08 d9be eea3 5f3d
000000e0: a4a0 4abe dfd7 4fbd 90b8 2bbe 0812 a8be
000000f0: 8d35 8cbd 5514 8ebe 1a24 c73c 1724 f0be
00000100: 089a f63c 2634 7bbb b4a7 9c3d b580 e53d
00000110: df6e 3c3d 1fac 87be 48a6 283d d6e4 9cbe
00000120: 1686 b53d bc68 1dbd 3476 5b3d 5dfa ec3d
00000130: 82ae f03c 7032 88bd 6456 2c3d 975d 12be
00000140: 50dc 12bf 7cc6 283b 29ed ae3c b529 27be
00000150: 1ecd 083d dae5 7bbe 78d9 65be 123f ce3c
00000160: c0b5 47bd 422b 593d 7de0 993e 2fc3 123d
00000170: bc71 a0bd 1a16 b2be e9c2 30be 54bf da3c
00000180: 6b14 55bc 3e17 e3bc 2d95 c63c 1852 d23c
00000190: e3d1 7f3d e840 693d 6ccd 94be 0401 da3c
000001a0: b00c dbbe f8cf 6ebe e1f8 e439 c35f fdbd
000001b0: 5428 b83d 0f27 b93d 8edf 6abd 9a5b 60be
000001c0: 4a16 b4bc 42e7 01be 3b80 583a 440b bebe
000001d0: b5cb ce3c 6fed 8ebe 8682 d2bb 0894 d5be
000001e0: c4fd aa3c be70 9f3c a762 abbe 365f 24be
000001f0: 8988 9abe 01c4 233d 9a19 6ebe f208 6cbe

fc3.weight f4 [64, 128]
-0.110682316 0.10600541 0.18733868 0.08875794 0.05591453 -0.4645795 -0.10835231 -0.6747772
0.15526894 0.20094293 -0.30909163 -0.6155273 0.14092861 0.22840382 -0.09951402 0.1795944
-0.13535947 0.011726762 0.19952586 -0.41423413 0.37172833 -0.38507244 0.067039184 0.042831346
0.38916954 0.057650294 -0.04121034 0.13160451 0.08569648 0.25118873 -0.5923228 -0.47788408
0.2063805 0.15521349 -0.8578322 0.09486387 0.142741 0.20248292 0.14571199 0.044094354
0.110486805 0.3729048 -0.33105147 0.17760663 -0.14274903 -0.7707305 -0.17357871 0.13260399
0.22607931 0.20450373 0.079365484 0.04694683 -0.3637964 0.23224911 -0.53893036 0.27513984
-0.89720505 0.06033413 -0.31072924 0.3502229 0.22429904 0.07947748 0.10279075 0.17871603
0.15750697 -0.30958155 0.059833594 0.34271234 0.24008311 0.065833844 0.12861636 0.3171102
0.21914704 0.09882701 0.17461601 -0.75622886 0.23133689 -0.08544661 0.18482782 0.024727568
0.1756643 -1.4310594 0.13484092 -0.24108322 -0.050013483 0.062413916 0.46546096 0.023443313
0.3288594 0.08301876 -0.27521735 0.010606162 0.124366775 0.17226344 -1.5395378 0.16742153
0.04309864 0.20265552 0.21570611 0.16791733 0.2647827 0.23911528 0.73753136 0.15076889
0.59613097 -0.4882034 0.064828545 -0.8212202 0.26006243 0.11858751 0.102340706 -0.051546276
-0.04560381 -0.8024525 0.11879398 0.21829814 0.16206942 -0.1505049 0.02235015 -0.6195062
-0.37093168 0.097775206 -0.2861357 -0.39654273 0.6561028 0.073895685 -1.0782881 -0.69228977
0.008170293 0.11362756 0.09041695 0.12891436 -0.06922831 -0.34361425 -0.03025529 -0.37963355
-0.089073494 0.10427672 -0.3919839 -0.6161114 0.061701618 0.2072584 -0.19760287 0.10600019
-0.40059662 0.045228593 0.15399969 -0.40822 -0.02042957 -0.29586336 0.09826892 0.087676644
0.008133533 0.07645905 -0.06039953 0.029601483 0.0023988716 0.18617882 -0.6960552 -0.34296587
0.033229962 0.15025172 -0.80760926 0.091901965 0.1554395 0.15602817 0.109028034 0.13786322
-0.07002395 0.26526213 -0.29095402 0.27794483 -0.4171189 -0.61168236 -0.36423227 0.08755337
0.19356018 0.124099076 0.03891782 0.052208032 -0.42599186 0.36601305 -0.47840032 0.10049074
-0.74535877 -0.09285993 -0.80663055 0.33123332 0.16185029 -0.12612452 0.11578637 0.15750566
-0.0048825783 -0.33160013 0.1343162 0.33076352 0.12826249 0.101728246 0.0795672 0.08352649
0.14794086 -0.08513265 0.20446233 -0.88132286 0.22796972 -0.056834076 0.115474775 0.092219494
0.09182379 -1.3161508 0.010090631 -0.23635854 0.3349333 -0.02462809 0.64755166 0.046093047
0.46118543 0.10032439 -0.50780874 0.09253916 0.09163695 0.2719828 -1.4227751 0.27424935
0.0100324415 0.03808361 0.15041769 -0.0055074156 0.18946244 0.15386944 0.097117946 0.1802428
0.22449705 -0.5333382 -0.029119827 -0.963459 0.18592931 0.061623573 -0.18988536 -0.0074778283
-0.018713389 -0.081904136 0.034646343 0.39005095 0.07898579 -0.1830775 0.18206373 -0.5219642
-0.66068995 0.16382436 -0.17728339 -0.36367038 0.55967987 0.016462222 -1.1065576 -0.3785583
00000000: 69ad e2bd 5d19 d93d b6d5 3f3e b9c6 b53d
00000010: a206 653d 5ddd edbe d1e7 ddbd 33be 2cbf
00000020: d2fe 1e3e fcc3 4d3e 4241 9ebe 3293 1dbf
00000030: 974f 103e b1e2 693e 02ce cbbd 98e7 373e
00000040: ac9b 0abe 9b21 403c 8250 4c3e 7f16 d4be
00000050: 2d53 be3e 3728 c5be d74b 893d ec6f 2f3d
00000060: 3b41 c73e b722 6c3d 2ccc 28bd 55c3 063e
00000070: a381 af3d cf9b 803e 78a2 17bf 39ad f4be
00000080: 6955 533e 49f0 1e3e e49a 5bbf fd47 c23d
00000090: b22a 123e af57 4f3e 8635 153e 489c 343d
000000a0: e846 e23d 61ed be3e 947f a9be 83de 353e
000000b0: cd2c 12be 984e 45bf 9ebe 31be 57c9 073e
000000c0: 5681 673e 6d69 513e 5f8a a23d 524b 403d
000000d0: 8643 babe b6d2 6d3e 57f7 09bf 21df 8c3e
000000e0: 3baf 65bf ec20 773d e717 9fbe 6a50 b33e
000000f0: a6ae 653e 17c5 a23d f583 d23d 5601 373e
00000100: 8249 213e 7981 9ebe 1214 753d fe77 af3e
00000110: 59d8 753e e5d3 863d 02b4 033e 455c a23e
00000120: 1568 603e d165 ca3d 8ace 323e 3798 41bf
00000130: 94e3 6c3e a2fe aebd 8143 3d3e 7891 ca3c
00000140: 58e1 333e f42c b7bf bd13 0a3e 85de 76be
00000150: f0da 4cbd bca5 7f3d e650 ee3e 310c c03c
00000160: 4260 a83e bd05 aa3d 4ae9 8cbe 78c5 2d3c
00000170: 02b4 fe3d d465 303e 930f c5bf 8d70 2b3e
00000180: 3388 303d ee84 4f3e 10e2 5c3e 85f2 2b3e
00000190: 9991 873e a3da 743e dbce 3c3f 2963 1a3e
000001a0: 0a9c 183f ccf5 f9be d4c4 843d 7d3b 52bf
000001b0: e726 853e 02de f23d 0198 d13d 3022 53bd
000001c0: 10cb 3abd 876d 4dbf 424a f33d 8c89 5f3e
000001d0: 87f5 253e f51d 1abe a917 b73c f597 1ebf
000001e0: c2ea bdbe 5e3e c83d 6180 92be a607 cbbe
000001f0: 5af6 273f 9f56 973d 5805 8abf e739 31bf
00000200: b1dc 053c 91b5 e83d 862c b93d 2002 043e
00000210: 92c7 8dbd 35ee afbe f1d9 f7bc 545f c2be
00000220: 2a6c b6bd 088f d53d 1db2 c8be 7ab9 1dbf
00000230: d6ba 7c3d 8c3b 543e 6858 4abe a116 d93d
00000240: 001b cdbe 9e41 393d 18b2 1d3e 3602 d1be
00000250: ea5b a7bc 677b 97be 3741 c93d d08f b33d
00000260: 8342 053c 9096 9c3d 7f65 77bd cf7e f23c
00000270: 6336 1d3b a9a5 3e3e ac30 32bf 3999 afbe
00000280: 241c 083d 96db 193e 7bbf 4ebf 1937 bc3d
00000290: 882b 1f3e d9c5 1f3e 174a df3d 042c 0d3e
000002a0: b768 8fbd 70d0 873e edf7 94be c94e 8e3e
000002b0: 9c90 d5be 3797 1cbf a77c babe 2e4f b33d
000002c0: a434 463e a827 fe3d 4b68 1f3d 17d8 553d
000002d0: 9b1b dabe 1066 bb3e e3f0 f4be 17ce cd3d
000002e0: d5cf 3ebf 592d bebd 577f 4ebf 6a97 a93e
000002f0: 15bc 253e c926 01be 6821 ed3d 2a49 213e
00000300: 09fe 9fbb 7ec7 a9be 308a 093e d659 a93e
00000310: 3e57 033e e656 d03d 21f4 a23d f00f ab3d
00000320: cf7d 173e 075a aebd 935e 513e 609e 61bf
00000330: e570 693e d9ca 68bd 0a7e ec3d 93dd bc3d
00000340: 1c0e bc3d a177 a8bf 2d53 253c f907 72be
00000350: 617c ab3e d9c0 c9bc f2c5 253f 10cc 3c3d
00000360: 7f20 ec3e e076 cd3d c1ff 01bf 2c85 bd3d
00000370: 27ac bb3d 5441 8b3e 7f1d b6bf 696a 8c3e
00000380: 1c5f 243c 8ffd 1b3d 1807 1a3e 8d77 b4bb
00000390: 7102 423e f38f 1d3e c6e5 c63d 9291 383e
000003a0: 8ee2 653e da88 08bf b48c eebc 40a5 76bf
000003b0: 4164 3e3e 0069 7c3d 4f71 42be 9208 f5bb
000003c0: d24c 99bc 5bbd a7bd 53e9 0d3d c2b4 c73e
000003d0: 4dc3 a13d ab78 3bbe ea6e 3a3e 729f 05bf
000003e0: fa22 29bf 93c1 273e c789 35be 0133 babe
000003f0: 2e47 0f3f c8db 863c aea3 8dbf 65d2 c1be

fc3.bias f4 [64]
0.13125977 0.14212957 -0.035819113 -0.021464556 -0.0753775 -0.085246116 0.026576156 0.31863746
0.04803054 0.28837582 0.007838497 0.25834554 0.016044062 0.044483095 0.30261335 -0.046605453
-0.047695182 0.20049109 0.15816563 0.17393354 -0.046836354 -0.024248071 0.094733685 0.14550434
0.12292834 -0.07074697 -0.11707137 0.0075095887 -0.06824739 0.16655481 0.039333537 0.058884148
-0.035642333 0.12171134 0.19323546 0.03788616 0.018417798 0.23524451 -0.09055285 0.10681756
0.05224318 0.0155783845 0.004989955 -0.11143205 0.031889547 0.12483275 -0.039154943 0.05583092
-0.12727948 -0.0009845571 0.15000561 -0.0060389126 0.13078912 0.19076261 0.00917473 -0.0074888594
0.1288017 0.15572673 -0.0085298475 0.063207544 0.05720356 0.23228337 0.14492664 0.18027614
00000000: f668 063e 6a8a 113e 10b7 12bd 70d6 afbc
00000010: 855f 9abd 8495 aebd 3db6 d93c 7324 a33e
00000020: acbb 443d ffa5 933e 0a6d 003c de45 843e
00000030: d66e 833c e833 363d 23f0 9a3e 5ce5 3ebd
00000040: 065c 43bd 894d 4d3e 2cf6 213e a21b 323e
00000050: 7ad7 3fbd e4a3 c6bc bc03 c23d 17ff 143e
00000060: dbc1 fb3d cae3 90bd 1dc3 efbd ff12 f63b
00000070: 4ac5 8bbd 588d 2a3e 341c 213d 8130 713d
00000080: b2fd 11bd cc43 f93d 84df 453e 852e 1b3d
00000090: ece0 963c f0e3 703e c673 b9bd 2ac3 da3d
000000a0: f2fc 553d 7b3c 7f3c c782 a33b 7d36 e4bd
000000b0: 9d9e 023d 50a8 ff3d ef60 20bd f6ae 643d
000000c0: 8d55 02be 410c 81ba 129b 193e 12e2 c5bb
000000d0: 95ed 053e 4657 433e 9b51 163c 1b65 f5bb
000000e0: 98e4 033e d476 1f3e c6c0 0bbc f572 813d
000000f0: 484e 6a3d b1db 6d3e a667 143e 4f9a 383e
