cartpole_policy_net_v1.pth (torch, 38848 bytes, 6 tensors)

fc1.weight f4 [128, 4]
0.19730425 0.33999303 -0.026574923 0.18812497 0.27274063 0.2936368 -0.5819144 0.20004146
-0.18071578 -0.32803404 -0.16162993 -0.303321 0.7493658 0.23155773 -0.24485229 0.02447957
-0.19481088 -0.33845574 -0.58032185 0.09185763 0.53808326 -0.029226346 -1.0227673 -0.08778602
0.80406994 0.04674321 -0.48242262 -0.22626853 -0.21802151 0.6195889 0.3006823 0.33148244
-0.173766 0.09604699 1.1556771 -0.53050214 0.5865043 0.07415287 -0.48339123 0.03482688
-1.3774203 0.07652772 -0.9070705 -0.0025704347 -0.5030472 -0.09305897 -0.19458674 -0.14304805
-0.056451526 -0.13889866 -2.3136463 -0.35525385 0.38605455 -0.24968155 -0.5649816 -0.21549915
0.5733329 -0.13061285 -0.4372964 -0.17598976 0.1606105 -0.08268126 0.85463005 -0.21828695
-0.5773405 -0.1365679 -0.28335652 -0.053509824 0.31545898 -0.49205506 -0.55901027 -0.06403567
-0.20471977 -0.17712274 1.314165 0.02637794 -0.09147944 -0.32072553 0.67864263 -0.18710962
0.14540765 -0.29707912 0.21694057 0.49310243 0.036724113 -0.41816485 -0.23943001 -0.37312543
-0.20155318 0.44288567 1.0643744 0.10143844 -0.14787605 0.20176573 0.036538795 0.2783872
0.0033602116 -0.0280523 2.2015102 0.21828485 0.10467908 -0.03239504 -0.235002 0.17518128
0.22253703 -0.085488915 -0.8475736 -0.047359917 -0.22938247 -0.19634129 -1.4113228 -0.2935413
-0.0052172057 -0.07728885 -0.12099081 -0.037709575 0.19754474 -0.34508106 -1.8371395 -0.3660525
-0.48289418 0.26642716 0.91827846 -0.13920547 -0.07043569 0.02281335 -0.7714766 -0.00202488
-0.20620199 0.35833147 0.5369408 -0.24617232 -0.009178486 0.5108215 0.92166877 0.46781307
-0.13309567 0.13279441 1.7646325 0.3370952 -0.16124015 -0.4387895 -0.6461258 -0.11397761
0.2673271 -0.15619375 -0.33201087 -0.041091762 0.09131943 -0.095837235 -0.19428328 -0.05700479
-0.037254483 0.043329988 0.015516799 -0.16901734 0.2867118 0.16421229 0.16573033 0.09071099
-0.19457054 0.23896937 1.8244693 0.31197533 -0.16000417 -0.024271114 -1.7006088 -0.4227514
0.5198822 0.10233775 -0.72101426 0.21636064 -0.8769678 0.42669812 0.34625077 0.06666982
-0.55856025 0.41825348 0.90179175 -0.43178374 -0.13220623 0.2005853 0.2981927 -0.00015378476
0.028924458 -0.1014242 0.63789886 0.40302095 -0.24145345 -0.07894878 -1.0260317 -0.19293162
-0.17384091 0.11425074 -1.8168045 -0.16814323 -0.08139713 0.08616088 2.812331 0.27120697
0.09641127 -0.20108244 0.24146344 -0.28616747 0.12944485 0.006167197 -0.44434673 0.25868762
-0.03163693 0.06310562 2.110906 0.32232592 0.39662567 0.23064546 0.90915966 0.2030575
0.021106983 -0.09200439 -0.00022177983 0.20616603 -0.060932256 0.075864695 -2.1034853 -0.14037609
-0.34696266 0.011711898 0.26005065 -0.35752183 0.26920307 0.048454802 -0.5722301 0.2547461
-0.078588255 -0.07623025 -0.3583994 0.20101559 0.68605757 0.0866977 -1.0509372 -0.14529777
-0.052318323 0.27533963 -1.4283081 0.10067067 -1.1153166 0.21115886 0.50155157 0.014789277
-0.5169657 0.08547071 -0.9416791 -0.13036631 0.71851814 -0.022358488 -0.77633774 -0.20112291
00000000: 200a 4a3e 9113 ae3e a7b3 d9bc d5a3 403e
00000010: a9a4 8b3e 9057 963e 58f8 14bf abd7 4c3e
00000020: 8f0d 39be 14f4 a7be 5182 25be e44c 9bbe
00000030: 70d6 3f3f 781d 6d3e 8fba 7abe 6189 c83c
00000040: 817c 47be 124a adbe f98f 14bf da1f bc3d
00000050: d3bf 093f 176c efbc 0aea 82bf 28c9 b3bd
00000060: 87d7 4d3f cf75 3f3d 1900 f7be f0b2 67be
00000070: 0841 5fbe 619d 1e3f 08f3 993e 11b8 a93e
00000080: b7ef 31be 49b4 c43d 3aed 933f fdce 07bf
00000090: 2525 163f 76dd 973d 0e7f f7be a1a6 0e3d
000000a0: 4f4f b0bf 91ba 9c3d c635 68bf bd74 28bb
000000b0: b4c7 00bf b495 bebd bf41 47be 307b 12be
000000c0: b739 67bd 733b 0ebe c812 14c0 d5e3 b5be
000000d0: f1a8 c53e 85ac 7fbe a2a2 10bf cfab 5cbe
000000e0: f2c5 123f 60bf 05be 50e5 dfbe a936 34be
000000f0: 1477 243e cb54 a9bd 09c9 5a3f 9d86 5fbe
00000100: 96cc 13bf 75d8 0bbe 1b14 91be 1e2d 5bbd
00000110: d783 a13e a4ee fbbe 4c1b 0fbf 2225 83bd
00000120: 0fa2 51be aa5f 35be 8f36 a83f 8d16 d83c
00000130: 9359 bbbd 2336 a4be 86bb 2d3f aa99 3fbe
00000140: bee5 143e c11a 98be ab25 5e3e ec77 fc3e
00000150: 066c 163d b419 d6be 242d 75be 4c0a bfbe
00000160: f563 4ebe e9c1 e23e 6c3d 883f f5be cf3d
00000170: d26c 17be ad9b 4e3e b4a9 153d c488 8e3e
00000180: ff36 5c3b f0cd e5bc 8be5 0c40 1086 5f3e
00000190: fc61 d63d a9b0 04bd 5da4 70be b962 333e
000001a0: bfe0 633e d014 afbd 95fa 58bf 79fc 41bd
000001b0: 3de3 6abe b10d 49be 3aa6 b4bf 0c4b 96be
000001c0: 18f5 aabb 9e49 9ebd 08ca f7bd 5b75 1abd
000001d0: 2b49 4a3e 77ae b0be 6327 ebbf 3c6b bbbe
000001e0: e83d f7be 2469 883e 4c14 6b3f e18b 0ebe
000001f0: 9640 90bd 10e3 ba3c 7e7f 45bf d9b3 04bb
00000200: 9d26 53be 3977 b73e f474 093f 9914 7cbe
00000210: 5c61 16bc 33c5 023f 7cf2 6b3f 3285 ef3e
00000220: 3b4a 08be 42fb 073e 7adf e13f be97 ac3e
00000230: 231c 25be 04a9 e0be 8068 25bf 186d e9bd
00000240: 19df 883e 41f1 1fbe 54fd a9be d64f 28bd
00000250: ae05 bb3d 5046 c4bd 32f2 46be db7d 69bd
00000260: 2898 18bd c97a 313d 2c3a 7e3c e212 2dbe
00000270: e4cb 923e 4427 283e 36b5 293e afc6 b93d
00000280: 803d 47be 63b4 743e 3688 e93f 3bbb 9f3e
00000290: 22d8 23be 37d4 c6bc 8dad d9bf df72 d8be
000002a0: 0017 053f 7496 d13d 6494 38bf a58d 5d3e
000002b0: f680 60bf 2d78 da3e c847 b13e 308a 883d
000002c0: cefd 0ebf 5225 d63e d3db 663f c212 ddbe
000002d0: 1261 07be 3c66 4d3e b7ac 983e 4841 21b9
000002e0: fcf2 ec3c 7eb7 cfbd 574d 233f c358 ce3e
000002f0: 933f 77be e6af a1bd 0255 83bf de8f 45be
00000300: 5a03 32be 4bfc e93d 0d8d e8bf bd2d 2cbe
00000310: 8ab3 a6bd 1e75 b03d 3bfd 3340 a4db 8a3e
00000320: 4673 c53d 8ee8 4dbe 3142 773e 8b84 92be
00000330: 318d 043e 3316 ca3b 6a81 e3be b472 843e
00000340: ba95 01bd 853d 813d 1519 0740 e707 a53e
00000350: 8512 cb3e 532e 6c3e b0be 683f 4eee 4f3e
00000360: 8de8 ac3c cc6c bcbd 928d 68b9 301d 533e
00000370: 1a94 79bd f35e 9b3d 819f 06c0 c0be 0fbe
00000380: 17a5 b1be 43e3 3f3c 5c25 853e 1a0d b7be
00000390: fcd4 893e 8b78 463d ac7d 12bf 156e 823e
000003a0: e1f2 a0bd 9b1e 9cbd 2080 b7be 08d7 4d3e
000003b0: 78a1 2f3f 908e b13d 1c85 86bf f0c8 14be
000003c0: bd4b 56bd 51f9 8c3e cdd2 b6bf 6d2c ce3d
000003d0: b2c2 8ebf 073a 583e af65 003f b94e 723c
000003e0: dd57 04bf 450b af3d e211 71bf bf7e 05be
000003f0: cef0 373f 2629 b7bc 12be 46bf 2af3 4dbe

fc1.bias f4 [128]
-0.7622914 0.1630906 0.36001787 -0.23293695 0.16752511 -0.7965615 -0.5907618 0.06662935
0.008844823 0.23000713 -0.045773637 0.20240343 -0.58992755 -0.5578312 -0.6278873 -0.1813733
-0.021550763 -0.2947582 -0.5849109 -0.3232555 -0.5947436 0.41837454 0.024777343 0.43139964
-0.4373619 0.4968104 -0.2571226 0.36758375 0.1191444 -0.5659666 0.32802492 0.2664906
0.4046956 -0.2970946 -0.33633813 0.4158397 -0.07382958 0.3447771 0.4786683 -0.745884
-0.35887596 -0.8372043 0.17640145 0.077886835 -0.74090457 0.3627554 -0.18342108 -0.7385512
-0.59138036 -0.5900371 0.30918482 0.6098335 -0.44701472 -0.5608613 0.26958138 -0.45373005
0.64584875 -0.46438837 0.61904514 -0.13102666 0.025224477 0.14695705 0.13349703 0.1321451
-0.35379148 0.8371275 0.19649418 -0.06658789 0.54207295 -0.12134422 -0.729741 0.5264873
0.08928315 -0.59328014 0.00030222887 0.055120453 -0.37048012 0.19447942 0.34730986 0.15970089
-0.42697427 0.49585193 0.54319215 -0.17690852 0.6303287 0.11867818 0.64687735 0.32089218
-0.6045216 0.53958994 -0.59410864 -0.18294841 -0.8331701 0.54108477 -0.0694012 -0.50888807
-0.62030417 0.42542025 -0.17073558 -0.48396787 0.4293466 -0.3091189 -0.42804468 0.12961793
0.6138449 -0.47021893 -0.4602845 -0.7829211 -0.44238764 0.39719144 -0.4051602 -0.9308211
-0.5734659 -0.9108344 -0.024107266 0.49417296 -0.18927418 0.3156165 -0.58101875 0.25305614
0.08140649 -0.7457889 0.4555457 0.13359585 0.3654562 -0.39785814 -0.4059798 0.47319928
00000000: 8725 43bf 3901 273e 4354 b83e 0687 6ebe
00000010: b48b 2b3e 74eb 4bbf 2a3c 17bf f874 883d
00000020: e0e9 103c fd86 6b3e 237d 3bbd d842 4f3e
00000030: 7e05 17bf 07ce 0ebf 39bd 20bf ecb9 39be
00000040: 3a8b b0bc 8cea 96be b9bc 15bf bf81 a5be
00000050: 1e41 18bf 3035 d63e dbf9 ca3c 6ae0 dc3e
00000060: e6ed dfbe ef5d fe3e 93a5 83be f033 bc3e
00000070: fb01 f43d 30e3 10bf e2f2 a73e 7571 883e
00000080: 4334 cf3e c91c 98be 8334 acbe f1e8 d43e
00000090: f633 97bd a086 b03e 0314 f53e 41f2 3ebf
000000a0: 97be b7be 0553 56bf 95a2 343e 2283 9f3d
000000b0: ecab 3dbf 13bb b93e bcd2 3bbe b111 3dbf
000000c0: b464 17bf ac0c 17bf 794d 9e3e 0c1e 1c3f
000000d0: 1ddf e4be 9b94 0fbf 9206 8a3e 4e4f e8be
000000e0: 5856 253f 50c4 edbe be79 1e3f da2b 06be
000000f0: 90a3 ce3c e97b 163e 72b3 083e 0c51 073e
00000100: 2824 b5be fd4d 563f c535 493e 3b5f 88bd
00000110: 4bc5 0a3f 5283 f8bd 4ed0 3abf dfc7 063f
00000120: 16da b63d 35e1 17bf 7974 9e39 fcc5 613d
00000130: 92af bdbe 9d25 473e 99d2 b13e a188 233e
00000140: 5f9c dabe 4ee0 fd3e a40e 0b3f 8227 35be
00000150: 395d 213f 8c0d f33d c199 253f fb4b a43e
00000160: edc1 1abf 9122 0a3f 8117 18bf d456 3bbe
00000170: a34a 55bf 8884 0a3f 3722 8ebd 7d46 02bf
00000180: 41cc 1ebf afd0 d93e 4fd5 2ebe a3ca f7be
00000190: 51d3 db3e d544 9ebe ac28 dbbe 90ba 043e
000001a0: f024 1d3f 89c0 f0be 69aa ebbe 846d 48bf
000001b0: a280 e2be ad5c cb3e 2871 cfbe 4b4a 6ebf
000001c0: a9ce 12bf 712c 69bf 9a7c c5bc 3d04 fd3e
000001d0: 17d1 41be 7c98 a13e a5bd 14bf 9390 813e
000001e0: 72b8 a63d 05ec 3ebf 493d e93e 5acd 083e
000001f0: 131d bb3e 10b4 cbbe 96dc cfbe 2d47 f23e

fc2.weight f4 [64, 128]
-0.99165833 0.15683873 -0.0060445713 0.43248355 -0.1128706 -1.9334651 -0.0054105986 0.063155115
0.09434738 0.18607956 -0.2959084 -0.05273014 -0.6054227 -0.117114946 -1.5155708 -0.0942602
-0.04044169 -0.20217702 -0.32772332 0.030921228 -0.03913473 0.18590215 -0.010504647 0.13056064
-3.2533026 0.13733466 0.29243404 -0.30237585 -0.021499256 -2.1577964 0.20181116 0.111043796
0.20640881 -0.54647535 -0.035326265 0.09481965 0.024035765 0.1398408 0.16227065 -0.83502173
-0.6888812 -0.29410917 0.1141246 0.03211374 -0.19868806 0.045847993 0.09235494 -0.6867908
-1.2132316 -2.8445556 0.07690201 0.19652162 -2.85392 -0.8498702 0.07487725 -2.6322505
0.13626844 0.25091335 0.20267291 -0.61597234 -0.2588784 0.13082707 -0.120826825 0.1576861
-0.4689421 -0.11459397 0.06487679 0.32634246 0.20168139 -0.013881949 -0.5327279 0.11072273
0.12515324 -3.799755 0.11862882 0.07942173 -1.7182165 0.2179279 0.074072085 0.0065074973
-0.0976492 0.08085021 0.11300865 -0.023845682 0.20783953 -0.29508182 0.10354997 -0.03432464
-0.46555188 0.17706941 -0.94558567 0.0027504186 -0.5142009 0.21669753 0.11299742 -2.553873
-0.44172877 0.16944247 -0.26676103 -3.970015 0.19684197 -0.28614637 -0.5033261 0.16532454
0.103604876 -1.5220165 -2.5519059 -1.2039026 -2.0883694 0.13558087 0.11869365 -0.34434703
-0.52171665 -0.17547724 -0.13540068 0.1422934 0.009783891 0.015587674 -0.32066312 0.096828066
0.045862254 -0.28923643 0.10725346 0.14129676 0.033154603 0.027583115 -1.312796 0.17757708
-0.065906145 0.04844663 8.367558e-05 -0.038027942 -0.07917822 -0.031463098 -0.011994192 0.013478412
-0.0038164596 -0.08441939 0.07229174 0.023041159 -0.08163611 0.066080645 0.022326723 0.035174407
-0.039304163 0.0073305275 -0.014547179 -0.044993427 -0.036802974 -0.004704308 -0.011511579 -0.09374262
-0.09492954 -0.05458541 0.07118938 0.06984796 -0.04511913 0.018070113 -0.09325405 -0.046242334
-0.05906886 -0.065549076 -0.025947537 -0.0358341 -0.01395137 0.038138576 0.038849883 -0.08388404
-0.0019576547 -0.060398594 -0.041410986 -0.023432104 0.051053353 0.031982034 0.04633799 -0.034444004
-0.06111531 -0.017972283 -0.08044332 0.009775826 0.0569545 -0.06614595 -0.057164602 0.042805836
-0.06783621 0.049549583 -0.017507305 0.0050431234 -0.04226098 -0.085306466 0.060367003 0.00938252
0.0275849 -0.059448402 -0.0031228578 0.038267206 -0.027602129 -0.06611327 -0.07183769 0.04999076
-0.0012821705 0.024288692 -0.08567427 0.016247844 0.01796089 -0.06102032 0.04753604 0.035866857
-0.027858213 -0.08574636 -0.08859658 0.08113797 0.047506213 -0.054880586 0.016279187 0.05141424
-0.08671792 0.050570033 -0.024153337 -0.06808177 0.0655226 -0.062093813 -0.048202276 0.012218371
-0.030327229 -0.010192546 -0.0029729288 0.037091587 -0.044576533 0.048707593 -0.022144934 -0.008551509
0.046653822 -0.026140748 -0.091589965 0.05673168 -0.020977097 -0.0398662 -0.093212 0.059883073
-0.0029363749 0.07768392 -0.039385222 0.07591601 0.0036499803 -0.08780039 0.07382632 -0.068056025
-0.008786808 -0.045279495 0.039631903 -0.03420317 0.052415375 -0.06736974 0.018144544 -0.052148227
00000000: 52dd 7dbf 559a 203e 8a11 c6bb 7c6e dd3e
00000010: b328 e7bd c97b f7bf 644b b1bb 7857 813d
00000020: 3339 c13d a48b 3e3e 4e81 97be 8ffb 57bd
00000030: fbfc 1abf f6d9 efbd 39fe c1bf 7e0b c1bd
00000040: 2fa6 25bd 7e07 4fbe 5acb a7be 844e fd3c
00000050: bd4b 20bd 225d 3e3e af1b 2cbc b0b1 053e
00000060: 1c36 50c0 75a1 0c3e eab9 953e 02d1 9abe
00000070: 351f b0bc 5619 0ac0 96a7 4e3e ee6a e33d
00000080: d55c 533e cfe5 0bbf 46b2 10bd ce30 c23d
00000090: a7e6 c43c 6d32 0f3e 472a 263e fcc3 55bf
000000a0: 855a 30bf 7a95 96be 29ba e93d b289 033d
000000b0: e274 4bbe 1bcb 3b3d 9624 bd3d 86d1 2fbf
000000c0: 2c4b 9bbf 330d 36c0 cd7e 9d3d f73c 493e
000000d0: a0a6 36c0 1891 59bf 3e59 993d cb76 28c0
000000e0: f489 0b3e b777 803e 7d89 4f3e 5db0 1dbf
000000f0: b68b 84be 88f7 053e 0e74 f7bd 7778 213e
00000100: 2e19 f0be 3eb0 eabd 1fde 843d 5c16 a73e
00000110: 9185 4e3e 1d71 63bc db60 08bf 99c2 e23d
00000120: 2c28 003e 302f 73c0 abf3 f23d dca7 a23d
00000130: 85ee dbbf 7e28 5f3e 1bb3 973d d83c d53b
00000140: 4efc c7bd cb94 a53d 1471 e73d 0558 c3bc
00000150: e3d3 543e f714 97be 0212 d43d fe97 0cbd
00000160: d15c eebe af51 353e e711 72bf 5e40 343b
00000170: aca2 03bf f5e5 5d3e 316b e73d a872 23c0
00000180: 462a e2be 5482 2d3e e794 88be ba14 7ec0
00000190: f190 493e c781 92be fbd9 00bf d64a 293e
000001a0: cb2e d43d 70d1 c2bf 6d52 23c0 7b19 9abf
000001b0: d8a7 05c0 b6d5 0a3e a815 f33d 414e b0be
000001c0: 398f 05bf 4eb0 33be 7aa6 0abe 5cb5 113e
000001d0: 9d4c 203c 7263 7f3c f52d a4be cb4d c63d
000001e0: 0fda 3b3d cc16 94be b4a7 db3d 19b0 103e
000001f0: 1fcd 073d fcf5 e13c b309 a8bf c4d6 353e
00000200: cdf9 86bd f96f 463d fc7a af38 30c3 1bbd
00000210: 3128 a2bd 73df 00bd 4a83 44bc 8fd4 5c3c
00000220: 911d 7abb 13e4 acbd b10d 943d d0c0 bc3c
00000230: d530 a7bd 4a55 873d 88e6 b63c 0a13 103d
00000240: 67fd 20bd ec34 f03b 4b57 6ebc 074b 38bd
00000250: b7be 16bd 9926 9abb 109b 3cbc 21fc bfbd
00000260: 6b6a c2bd f394 5fbd bdcb 913d 720c 8f3d
00000270: d6ce 38bd c607 943c fbfb bebd 9a68 3dbd
00000280: 30f2 71bd 983e 86bd ee8f d4bc c7c6 12bd
00000290: 4994 64bc 3237 1c3d 0e21 1f3d 65cb abbd
000002a0: ff4b 00bb 8464 77bd 919e 29bd aff4 bfbc
000002b0: 521d 513d 98ff 023d e7cc 3d3d 2815 0dbd
000002c0: 0c54 7abd 9c3a 93bc 78bf a4bd c92a 203c
000002d0: 1f49 693d 8777 87bd 6e25 6abd 2c55 2f3d
000002e0: b6ed 8abd 81f4 4a3d 7b6b 8fbc c940 a53b
000002f0: d919 2dbd 28b5 aebd 6443 773d 24b9 193c
00000300: baf9 e13c 2b80 73bd dca8 4cbb 13be 1c3d
00000310: dc1d e2bc 6566 87bd a41f 93bd 1cc3 4c3d
00000320: 810e a8ba 14f9 c63c fe75 afbd 331a 853c
00000330: b722 933c 71f0 79bd 27b5 423d 20e9 123d
00000340: e836 e4bc ca9b afbd 2072 b5bd aa2b a63d
00000350: e095 423d 77ca 60bd ee5b 853c bd97 523d
00000360: 2a99 b1bd 8622 4f3d 38dd c5bc 746e 8bbd
00000370: b730 863d 1556 7ebd c06f 45bd 902f 483c
00000380: cf70 f8bc a3fe 26bc 78d5 42bb 59ed 173d
00000390: e295 36bd 9d81 473d 4b69 b5bc a11b 0cbc
000003a0: 1418 3f3d 1f25 d6bc 8593 bbbd 7a5f 683d
000003b0: 29d8 abbc be4a 23bd efe5 bebd f447 753d
000003c0: 3270 40bb bf18 9f3d 6652 21bd da79 9b3d
000003d0: 8234 6f3b b1d0 b3bd 4132 973d f560 8bbd
000003e0: 8bf6 0fbc fe76 39bd 1055 223d a018 0cbd
000003f0: 81b1 563d 25f9 89bd dea3 943c 6199 55bd

fc2.bias f4 [64]
0.27082637 0.05905342 0.34348333 -0.06399707 0.010289786 0.08453829 0.0005973632 0.07701736
-0.03506562 0.006065057 0.32413575 0.34892398 0.013632681 0.026939815 0.31314722 -0.055196855
0.31694624 0.13804665 0.030497681 0.17553927 -0.042953126 -0.108446255 0.18699317 -0.03361871
0.042159006 0.23800924 -0.049664464 0.19883244 -0.07051123 -0.0008107103 -0.07070394 -0.051175527
0.05010882 0.3973095 0.005142111 0.22284622 -0.03260953 -0.087628454 -0.032188065 -0.041352384
0.20497327 0.1933351 -0.06270467 0.28073823 0.2381385 0.03393824 -0.06348434 0.26553428
0.18201707 0.2784963 0.29244384 0.2344218 -0.025471473 -0.051913965 -0.045202993 -0.003046206
0.29941058 -0.054118842 -0.038479414 -0.07997359 0.22035038 -0.03022647 0.041700646 0.33612815
00000000: c1a9 8a3e 00e2 713d 0cdd af3e e510 83bd
00000010: 7e96 283c 6922 ad3d 5e98 1c3a 47bb 9d3d
00000020: f8a0 0fbd 63bd c63b 1ff5 a53e 2aa6 b23e
00000030: 9c5b 5f3c e3b0 dc3c d554 a03e 1916 62bd
00000040: c746 a23e 1a5c 0d3e 46d6 f93c 91c0 333e
00000050: 9eef 2fbd 1219 debd 237b 3f3e c6b3 09bd
00000060: ecae 2c3d b2b8 733e f76c 4bbd bb9a 4b3e
00000070: 3168 90bd d985 54ba 3acd 90bd 6e9d 51bd
00000080: e83e 4d3d 276c cb3e 277f a83b cd31 643e
00000090: 9291 05bd 8c76 b3bd a2d7 03bd 1e61 29bd
000000a0: 83e4 513e a3f9 453e 4e6b 80bd ecbc 8f3e
000000b0: 94da 733e d302 0b3d 1404 82bd 1cf4 873e
000000c0: af62 3a3e 1197 8e3e 33bb 953e 450c 703e
000000d0: 8da9 d0bc bda3 54bd c626 39bd dba2 47bb
000000e0: 584c 993e b8ab 5dbd 979c 1dbd 32c9 a3bd
000000f0: 88a3 613e 819d f7bc 4cce 2a3d fd18 ac3e

fc3.weight f4 [2, 64]
0.9004896 -0.029791733 0.4811868 0.038690276 -0.09662091 1.1110765 -0.029837463 0.70490545
0.08111363 0.015472333 1.1955882 1.0793811 0.081077926 -0.055216346 0.8689868 -0.093605
1.0113803 -5.7257833 -0.01964038 1.3979023 -0.09455768 0.093296744 1.4113258 -0.022316076
-0.022091389 1.3753614 -0.025499046 0.9775222 0.04830145 0.015282989 -0.032870848 -0.0061552534
0.11733883 -1.2030607 -0.10009998 0.7321746 -0.05987487 0.101250224 -0.027597085 0.074627094
1.0221033 1.1099967 -0.024534382 -0.6166392 0.92503923 0.0014982476 0.0073012984 1.0709634
0.7938642 0.7667298 -0.084169604 -0.19223814 -0.04717149 -0.019400124 -0.09435271 -0.072268955
-0.48993996 -0.062526785 -0.08247783 0.012072069 0.9286274 -0.039343536 -0.0153711075 1.2048062
0.4533188 -0.09550245 0.97783804 0.00718881 0.09554061 -0.9022365 0.027203055 1.3772322
-0.043134745 -0.082890525 0.46394026 0.5704647 -1.7177751 0.022384409 0.7116119 0.06282023
0.7932445 5.3091664 0.0021334344 -0.11842246 -0.023146002 -0.04268145 -0.88331497 0.0023995521
0.086442366 -0.4340764 0.06468912 0.7345944 0.11386341 -0.017905822 -0.0010343269 -0.07632266
-0.024929864 1.199418 -0.048374563 0.67419255 0.0069401655 -0.06349409 0.07776201 -0.0438507
0.6936142 0.7201711 -0.027250007 1.1829417 0.9442495 0.03215231 -0.06490653 0.59423995
0.84108347 0.6559519 1.2285498 1.1265017 0.01899451 -0.051608264 -0.11440909 -0.04070348
1.2797639 -0.09572397 0.058362614 0.10116852 0.534242 -0.0056102225 -0.00041458846 0.52326053
00000000: 7d86 663f cb0d f4bc 1e5e f63e b279 1e3d
00000010: 2fe1 c5bd c137 8e3f b26d f4bc af74 343f
00000020: e71e a63d ab7f 7d3c 0909 993f 2929 8a3f
00000030: 2f0c a63d 892a 62bd eb75 5e3f fab3 bfbd
00000040: e974 813f 9e39 b7c0 dde4 a0bc 76ee b23f
00000050: 75a7 c1bd 5d12 bf3d 53a6 b43f 34d0 b6bc
00000060: 00f9 b4bc d80b b03f 60e3 d0bc e53e 7a3f
00000070: bed7 453d 8065 7a3c 95a3 06bd 02b2 c9bb
00000080: 574f f03d e5fd 99bf 3801 cdbd cb6f 3b3f
00000090: 5a3f 75bd 475c cf3d 4813 e2bc 17d6 983d
000000a0: 48d4 823f 5f14 8e3f 54fc c8bc 11dc 1dbf
000000b0: 5fcf 6c3f d960 c43a bb3f ef3b 5415 893f
000000c0: af3a 4b3f 6748 443f 1d61 acbd 13da 44be
000000d0: e436 41bd 02ed 9ebc fe3b c1bd bf01 94bd
000000e0: 69d9 fabe 0b0e 80bd 23ea a8bd edc9 453c
000000f0: 86ba 6d3f b026 21bd 19d7 7bbc 1737 9a3f
00000100: 6719 e83e ca96 c3bd 9853 7a3f 1c90 eb3b
00000110: ccaa c33d f9f8 66bf f1d8 de3c 2549 b03f
00000120: 0fae 30bd 82c2 a9bd 9489 ed3e f909 123f
00000130: 0ee0 dbbf 825f b73c 332c 363f e5a7 803d
00000140: 1212 4b3f b1e4 a940 17d1 0b3b 7a87 f2bd
00000150: af9c bdbc bed2 2ebd ee20 62bf ce41 1d3b
00000160: b208 b13d 433f debe bb7b 843d 610e 3c3f
00000170: 3831 e93d 3baf 92bc 4092 87ba 0e4f 9cbd
00000180: b739 ccbc 8786 993f 6824 46bd e297 2c3f
00000190: 546a e33b 3109 82bd b041 9f3d cb9c 33bd
000001a0: b390 313f 225d 383f 683b dfbc a26a 973f
000001b0: 56ba 713f 24b2 033d b7ed 84bd 1c20 183f
000001c0: 3f51 573f 77ec 273f 1f41 9d3f 3531 903f
000001d0: 609a 9b3c 3063 53bd 504f eabd b1b8 26bd
000001e0: 4ecf a33f ee0a c4bd a30d 6f3d 7131 cf3d
000001f0: 15c4 083f f5d5 b7bb 1f5d d9b9 67f4 053f

fc3.bias f4 [2]
0.27903607 0.07794426
00000000: d1dd 8e3e 3da1 9f3d
